nca-code/runs/test_250607_193931/checkpoints/00d62c1b.pth (torch, 106145 bytes, 6 tensors)

fc1.weight f4 [128, 180, 1, 1]
0	0xbd520b42	-0.051280268
1	0x3d0d48ff	0.034493443
2	0x3dc5e4c6	0.09662776
3	0x3d0d015e	0.034425132
4	0x3d6bdb49	0.057582173
5	0xbddeb536	-0.10874407
6	0xbdcf9aae	-0.10136925
7	0x3df61044	0.12014821
8	0x3dcc7f2e	0.09985195
9	0x3db435ed	0.08799348
10	0x3df15fec	0.11785874
11	0x3c00a770	0.00785242
12	0xbdb68c1e	-0.08913444
13	0xbb46875d	-0.0030293085
14	0xbdf9d94d	-0.1219965
15	0xbca110fa	-0.019661415
16	0xbba82c50	-0.0051322356
17	0xbd51d881	-0.051231865
18	0xbcab5af8	-0.0209174
19	0x3ccd431b	0.025056412
20	0x3dcdfcfd	0.10058019
21	0x3dae8648	0.08521706
22	0xbde1f6b6	-0.110333845
23	0x3cb63346	0.022241246
24	0x3c9930f0	0.018700093
25	0x3dd790e4	0.105256826
26	0x3e034e9d	0.12822957
27	0x3d9b77de	0.07591222
28	0xbdaf3ff6	-0.085571215
29	0x3dd64f26	0.10464315
30	0xb9fe7764	-0.00048535608
31	0xbd620cdf	-0.055188056
32	0xbd41cd65	-0.04731502
33	0x3cc18c6c	0.023626529
34	0x3d682745	0.056678075
35	0x3d1618f7	0.036644902
36	0x3c033348	0.008007832
37	0x3d085a74	0.033289388
38	0xbd3e256c	-0.046422407
39	0xbd401b00	-0.04690075
40	0x3dde6f9e	0.10861133
41	0xbd5410ac	-0.051773712
42	0x3de83eb0	0.11340082
43	0x3df7b756	0.120955154
44	0xbde47c70	-0.11156547
45	0x3710dcbb	8.634462e-06
46	0xbded9b6b	-0.11601909
47	0x3e0be4c9	0.13661493
48	0x3e1160c1	0.14197065
49	0x3db14f5e	0.08657716
50	0xbd979f2b	-0.07403406
51	0xbdd0b5f0	-0.10190952
52	0x3c2e3a71	0.010634051
53	0xbd0e9820	-0.034813046
54	0xbc91db62	-0.017804805
55	0x3d6a8fed	0.057266165
56	0xbdccca76	-0.09999554
57	0x3bd7ad7b	0.00658196
58	0xbd1fd1bd	-0.03901838
59	0xbda61bba	-0.08110757
60	0x3da44957	0.08021801
61	0x3de8e348	0.113714755
62	0x3dc95369	0.09830362
63	0xbd97502e	-0.0738834
64	0x3dd7f6b3	0.10545101
65	0x3d9da30f	0.076971166
66	0xbc81ef45	-0.015861163
67	0xbcfe7579	-0.031061875
68	0xbc50969c	-0.012731221
69	0x3c8fc5ff	0.017550467
70	0xbd2c84f7	-0.042118993
71	0x3d85f288	0.065404
72	0x3c7baa03	0.015360358
73	0xbd339699	-0.043844793
74	0xbd000013	-0.03125007
75	0xbdbec005	-0.093139686
76	0x3cdb2344	0.026750214
77	0x3c64c1bd	0.013962206
78	0x3d79060a	0.060796775
79	0xbd8755d0	-0.06608164
80	0x3d7aa1fc	0.061189637
81	0xba4eda6b	-0.0007890823
82	0x3de5cb91	0.11220468
83	0x3ccd58fa	0.025066841
84	0xbdb9ee5c	-0.090786666
85	0x3d80e3cc	0.06293449
86	0x3dfdc37b	0.123908006
87	0xbdbf649e	-0.09345363
88	0x3de5a676	0.112133905
89	0x3d5bd5d4	0.05367072
90	0xbdb8b341	-0.09018565
91	0xbc81bacc	-0.015836142
92	0xbcd5cfa3	-0.026099985
93	0xbd88b1a6	-0.06674509
94	0x3c89de79	0.016829716
95	0x3c711fca	0.014717052
96	0x3cc5e4de	0.024156984
97	0xbdc935e8	-0.09824735
98	0xbc932838	-0.017963514
99	0x3d93cc67	0.07216721
100	0xbcb73d53	-0.022368109
101	0x3dda4a64	0.1065872
102	0x3dce0a49	0.100605555
103	0xbca217a8	-0.01978667
104	0x3da04929	0.07826454
105	0xbd612676	-0.05496832
106	0xbda3f4a3	-0.08005645
107	0x3d21d493	0.039509367
108	0x3e057de0	0.13036299
109	0x3dbdc1b6	0.09265463
110	0xbdef4375	-0.11682788
111	0xbcaec8ef	-0.021336047
112	0x3d5fa8ac	0.054604217
113	0xbd875d87	-0.06609636
114	0xbdcb8b6d	-0.09938703
115	0x3dc519e9	0.096240826
116	0xbd9aeeb1	-0.07565058
117	0xbd39a324	-0.0453216
118	0xbda99541	-0.08280421
119	0x3d10a03b	0.035309058
120	0x3daeb72a	0.085310295
121	0x3dae599f	0.085131876
122	0xbbc433c6	-0.005987617
123	0xbacc525f	-0.0015588513
124	0xbc6bdf25	-0.0143964635
125	0x3df8ae09	0.121425696
126	0x3cf80fda	0.030280996
127	0x3de7ea9d	0.11324046
128	0xbd2b6dab	-0.041852634
129	0xbda4cd07	-0.08046918
130	0xbd738414	-0.05945213
131	0x3c9a5704	0.01884032
132	0xbd2b8659	-0.04187617
133	0x3bf0ae93	0.0073450296
134	0xbdc15e9c	-0.094418734
135	0xbd973230	-0.073826194
136	0x3d9e60d2	0.07733311
137	0x3d2249fb	0.039621335
138	0xbcab2ae6	-0.020894479
139	0xbc78474f	-0.01515372
140	0x3db33435	0.08750192
141	0x3ddf220f	0.10895168
142	0x3dbb0eb3	0.09133663
143	0xbddc7205	-0.10763935
144	0xbd435501	-0.047688488
145	0x3dbac771	0.09120072
146	0x3d4900b7	0.049072947
147	0x3d4447e1	0.04792011
148	0x3d98d1dd	0.07461903
149	0xbd2de5de	-0.042455547
150	0xbc4928c3	-0.012277785
151	0x3cf2dbf4	0.029645897
152	0x3d51b064	0.05119361
153	0xbdb2b078	-0.08725065
154	0x3d3f2e7c	0.04667519
155	0x3db6bdca	0.08922918
156	0x3caf29ff	0.02138233
157	0xbc7532e1	-0.014965744
158	0xbda6bf1a	-0.081419185
159	0x3bd82d6b	0.006597211
160	0xbd8c35c1	-0.0684619
161	0xbc40efa1	-0.011775882
162	0x3c820999	0.015873717
163	0x3dcb8530	0.09937513
164	0x3e0b7c60	0.13621664
165	0x3d666a77	0.056253877
166	0xbc26d27e	-0.010182021
167	0xbdc9c0da	-0.09851237
168	0xbd8ac739	-0.0677628
169	0x3aef86c2	0.0018274414
170	0x3d29b83a	0.041435458
171	0x3d93e7ce	0.072219476
172	0xbda020cd	-0.07818756
173	0x3d47b2cb	0.048754495
174	0xbd8e0ba4	-0.06935814
175	0x3da66968	0.081255734
176	0x3d6a51b9	0.057206843
177	0xbb349e74	-0.0027560266
178	0x3c574445	0.013138835
179	0xbc039d1f	-0.008033066
180	0xbdc9f585	-0.09861282
181	0x3d0250b7	0.031815257
182	0xbd706344	-0.058688417
183	0xbdd915b1	-0.105998404
184	0xbdbff439	-0.09372754
185	0x3dc64131	0.09680403
186	0xbdc25106	-0.0948811
187	0xbdccee7f	-0.10006427
188	0xbd318e0f	-0.04334837
189	0xbcca6fcc	-0.024711512
190	0x3cfebd01	0.031095983
191	0x3d23df82	0.040008076
192	0x3d8c4883	0.06849768
193	0x3dec2f34	0.11532441
194	0x3cb0fbbb	0.02160441
195	0xbcd3b651	-0.025843771
196	0x3d8e6075	0.069519915
197	0x3d055560	0.032552123
198	0xbd84c274	-0.064824015
199	0x3da95850	0.082687974
200	0xbdb0ea25	-0.086384095
201	0xbcfbe8b8	-0.030750617
202	0x3c530cb0	0.012881443
203	0x3de46f8e	0.1115409
204	0x3c5128c1	0.012766064
205	0xbd2a87c2	-0.041633375
206	0x3d21070d	0.039313365
207	0xbc96fc31	-0.018430801
208	0xbdd37a54	-0.103260666
209	0xbc9f5876	-0.019451361
210	0xbcd34e97	-0.02579431
211	0xbc8307f4	-0.015995003
212	0xbd5e8440	-0.054325342
213	0xbdd5c15c	-0.10437271
214	0xbd715f3d	-0.058928717
215	0xbc905365	-0.01761789
216	0x3d9664a2	0.07343413
217	0xbdb79e8e	-0.08965789
218	0x3d9f6e92	0.077847615
219	0x3db4c726	0.08827047
220	0xbd42a2f8	-0.0475187
221	0xbda27514	-0.07932487
222	0xbdc4b870	-0.09605491
223	0x3ca6d921	0.020367207
224	0xbd903203	-0.07040789
225	0xbd4f1dda	-0.050565578
226	0x3cbc4672	0.02298281
227	0xbd4c9fa5	-0.049956936
228	0xbda29962	-0.07939412
229	0x3ce12d7d	0.02748751
230	0x3debc931	0.115129836
231	0x3bf11f8a	0.007358496
232	0x3dd5cbda	0.10439272
233	0x3dc3214e	0.09527837
234	0x3d06803d	0.03283714
235	0xbc9d6700	-0.019214153
236	0x3db6c0ce	0.08923493
237	0x3dc462cc	0.095891565
238	0x3a90f330	0.0011058804
239	0xbc260ebb	-0.010135348
240	0xbddb3581	-0.107035644
241	0xbddd0ee3	-0.10793855
242	0xbaa9609b	-0.0012922467
243	0x3d121de6	0.035673045
244	0x3d91e2a4	0.071233064
245	0xbdce7ab9	-0.10082001
246	0x3d96da03	0.07365801
247	0xbce5b809	-0.028041856
248	0xbd81ff6b	-0.06347545
249	0xbdc4c90f	-0.096086614
250	0x3da89ca3	0.08233001
251	0xbd875dd1	-0.06609691
252	0xbd89b918	-0.06724757
253	0xbd7188a1	-0.05896819
254	0xbccb2067	-0.024795724
255	0xbd9c226d	-0.07623754

fc1.bias f4 [128]
0	0xbc5ae606	-0.013360506
1	0x3b4e238e	0.0031454298
2	0xbc0098b3	-0.007848906
3	0xbc20f284	-0.009823445
4	0xbc1d085f	-0.009584515
5	0xbc1ac25b	-0.009445752
6	0xbc085648	-0.008321352
7	0xbc623b52	-0.013808088
8	0xbc1a8932	-0.009432124
9	0xbc84e7f5	-0.016223887
10	0xb9c82ac9	-0.0003817885
11	0xbc180f2c	-0.009280961
12	0xbc3aca6c	-0.0114008
13	0xbbabac6b	-0.0052390597
14	0xbc0d1a44	-0.008612219
15	0xbc0aa1bd	-0.008461413
16	0xbc265560	-0.010152191
17	0xbca3a35a	-0.019975353
18	0xbbb4d333	-0.005518341
19	0xbc0efe10	-0.008727565
20	0x3c2be021	0.010490448
21	0xbb515beb	-0.0031945657
22	0xbc5bdfee	-0.013420088
23	0xbbab3bda	-0.0052256407
24	0xbc239dac	-0.009986322
25	0xbc20b05e	-0.009807674
26	0xba853631	-0.0010163245
27	0xbc337dc4	-0.010955278
28	0xbc02d807	-0.007986075
29	0xbba10b06	-0.004914644
30	0xbc2b2cb7	-0.010447673
31	0x3b5d8d6b	0.0033806216
32	0xbc1f6916	-0.009729644
33	0xbbda1d0e	-0.0066562956
34	0xbbdd9599	-0.006762218
35	0xbc419efd	-0.011817691
36	0xbc6b6bff	-0.01436901
37	0xbbfcf906	-0.0077201156
38	0xbc28835d	-0.010285226
39	0x3b18890d	0.0023275048
40	0xbc4921b6	-0.012276104
41	0xbbe432e9	-0.006964077
42	0xbc2260a9	-0.009910741
43	0xbc36e625	-0.011163269
44	0xbbbb220f	-0.005710847
45	0xba56a104	-0.00081874453
46	0xbc164cd6	-0.009173593
47	0xbc48ab79	-0.0122479135
48	0xbbae3f34	-0.005317593
49	0xbba151a5	-0.004923063
50	0xbbe3101f	-0.006929412
51	0xbc5232f3	-0.01282953
52	0xbc2e3ba8	-0.01063434
53	0xbc6cfd40	-0.014464676
54	0xbbcbb8f9	-0.006217119
55	0xbc851b99	-0.016248511
56	0xbc1201a3	-0.008911523
57	0xbc80588f	-0.015667228
58	0xbc048e0f	-0.00809051
59	0xbc2b397f	-0.01045072
60	0xbb603a8a	-0.003421458
61	0xbc29fc81	-0.010375143
62	0xbbd2d428	-0.0064339824
63	0xbc35e9de	-0.011103122
64	0xbc27049a	-0.010193968
65	0xbc3f36cb	-0.0116707785
66	0xbbfc8d5f	-0.0077072824
67	0xbc0a75f5	-0.008450975
68	0xbc193084	-0.009349946
69	0xbc2fb381	-0.010723949
70	0xbbd200c7	-0.006408784
71	0xbc03dafa	-0.008047814
72	0xbc3b6525	-0.011437689
73	0xbc20adfd	-0.009807107
74	0xbc49d7f7	-0.012319556
75	0xbb00a35c	-0.001962862
76	0xbc23480a	-0.009965906
77	0xbc4f10aa	-0.01263825
78	0xbbff395a	-0.0077888193
79	0xbc35d88b	-0.011098991
80	0xbc326c89	-0.010890135
81	0xbc42172a	-0.011846343
82	0xbad65911	-0.0016353448
83	0x3b556c0d	0.0032565624
84	0xbc237565	-0.0099767195
85	0xbc12460c	-0.008927833
86	0xbbd7c880	-0.0065851808
87	0xbc0f1a7b	-0.008734341
88	0xbbf3d49d	-0.007441117
89	0x3b658e67	0.0035027505
90	0xbc1b381c	-0.009473827
91	0xbc2a3135	-0.010387708
92	0x3bcc48be	0.0062342575
93	0xbc222cfa	-0.009898419
94	0xbc28b667	-0.010297394
95	0xbc269f06	-0.01016975
96	0xbc02f6f0	-0.007993445
97	0x3a62c8f7	0.0008651162
98	0xbc25434f	-0.010086848
99	0xbc2775dc	-0.010220971
100	0xbbc6c524	-0.0060659815
101	0xbad166cf	-0.0015976074
102	0xbbab39d8	-0.0052254014
103	0xbbeba1ed	-0.007190934
104	0xbc225638	-0.009908251
105	0x3cb74600	0.022372246
106	0xbc412ce1	-0.011790485
107	0xbc060ba8	-0.00818149
108	0xbbe7a871	-0.0070696403
109	0xbc305f67	-0.010764933
110	0xbc1d1b18	-0.009588979
111	0xbc15c742	-0.009141745
112	0xbc30525f	-0.010761826
113	0xbba65d38	-0.0050770305
114	0xbc1f5e53	-0.0097270785
115	0xbc10f393	-0.008847135
116	0x3bdd91af	0.0067617516
117	0x3c09411b	0.008377339
118	0xbc14cab4	-0.009081531
119	0xbc09c0c9	-0.00840778
120	0xba9beb87	-0.0011895754
121	0x3c2c07ee	0.010499937
122	0xbc188623	-0.009309324
123	0xbc2ec358	-0.010666691
124	0xbbebe691	-0.0071991165
125	0xbc2e2eb1	-0.010631249
126	0xba9121b7	-0.001107267
127	0xbc15b8ec	-0.009138327

fc2.weight f4 [20, 128, 1, 1]
0	0xbb6893f7	-0.0035488585
1	0x3b2e5b15	0.0026604582
2	0x3b4a12c3	0.0030833937
3	0x3bbf2dd2	0.0058343196
4	0x3ba79ea0	0.005115345
5	0x3b95f904	0.004576804
6	0xbc258cd3	-0.010104376
7	0xbb885b80	-0.0041612983
8	0x3b634ac2	0.003468201
9	0xbbc5b025	-0.006032961
10	0xbbbce8a7	-0.005765039
11	0x3b99589d	0.004679753
12	0xbb17f91e	-0.0023189257
13	0xbc1f2f07	-0.009715802
14	0x3b9fd525	0.0048777037
15	0x3b9c264c	0.0047653075
16	0x3bc1ae1e	0.005910649
17	0x3b992f21	0.0046748077
18	0x3bee594a	0.0072738277
19	0xbb3bc1fe	-0.0028649564
20	0xbc932205	-0.017960558
21	0xbc8b3b4f	-0.016996054
22	0xbb958a4a	-0.0045636045
23	0x3a948df6	0.0011333812
24	0x3bb06649	0.005383287
25	0x3bafde85	0.0053671026
26	0xbc274e50	-0.010211542
27	0xbad12613	-0.0015956782
28	0xbb8d31ac	-0.0043089
29	0x3b4d6baa	0.003134469
30	0x3bb916eb	0.005648484
31	0x3c078057	0.008270345
32	0xbb641cd9	-0.0034807234
33	0x3b015158	0.0019732323
34	0x3b9e3b30	0.004828833
35	0x3ba6449a	0.005074096
36	0xbc38a9c2	-0.011270942
37	0x3b757c7f	0.0037458239
38	0x3b8416fa	0.0040310593
39	0xbc546961	-0.012964577
40	0xb88d5714	-6.7396235e-05
41	0x3bcebb53	0.006308952
42	0x3b082720	0.0020775273
43	0x3beecaa0	0.0072873384
44	0xbc30fb73	-0.010802138
45	0x3b82b924	0.0039893556
46	0x3bb7d3e5	0.0056099766
47	0xbb1d8890	-0.0024037696
48	0x3af185f3	0.0018426761
49	0xbba1426b	-0.0049212477
50	0xbc7e4cf5	-0.015521278
51	0xbba1dc5e	-0.0049396
52	0x3b108b72	0.0022055772
53	0xbb8e5c48	-0.004344497
54	0x3b81dac5	0.003962847
55	0x3a6a6ea0	0.0008942876
56	0x3b871d0e	0.0041233366
57	0xbba12198	-0.0049173348
58	0x3b6084bb	0.00342588
59	0x3b5c3100	0.0033598542
60	0xbc41565f	-0.011800378
61	0x3b5e4d8c	0.0033920733
62	0x3b902215	0.004398594
63	0xba63a0dd	-0.0008683333
64	0xbba113f1	-0.0049157073
65	0xbbf73af4	-0.0075448696
66	0xbc75a3d6	-0.014992675
67	0x3bf45c30	0.0074572787
68	0xbb0b08a8	-0.0021214876
69	0x3bdf220b	0.006809478
70	0x3b298e9d	0.0025872358
71	0x3bacfa50	0.005278863
72	0x3c4117d5	0.011785467
73	0x3ba4b4ba	0.005026427
74	0x3b7bde8a	0.0038432204
75	0xbc46e57e	-0.012139676
76	0x3b99cefb	0.0046938634
77	0x3ba52a50	0.0050404444
78	0xbba1e5db	-0.004940731
79	0x3b26f5ef	0.0025476178
80	0xbadfc66a	-0.0017072682
81	0x3b63ef8c	0.0034780232
82	0xbc3b06c3	-0.011415186
83	0xbbce7f0b	-0.006301766
84	0x3b7de06e	0.0038738507
85	0xbc037ede	-0.008025853
86	0x3ba7abc6	0.0051169125
87	0x3ba6594c	0.005076563
88	0x3b9a3ca5	0.0047069364
89	0x3c6c4da3	0.014422807
90	0x3b9335f5	0.004492516
91	0x3b81a9e0	0.0039570183
92	0xbc4c6db3	-0.012477326
93	0x3b921a0b	0.004458671
94	0xba97f3d2	-0.001159305
95	0x3b5fbcba	0.003413959
96	0xbc833c33	-0.016019916
97	0xbc322a6d	-0.010874373
98	0x3bea9e65	0.0071599954
99	0x3be890c2	0.0070973346
100	0x3b7488fe	0.00373131
101	0xbba54cf8	-0.005044576
102	0x3ba692dc	0.005083425
103	0x3b8a79f0	0.004225962
104	0xbbd38536	-0.006455089
105	0x3bb1296f	0.0054065506
106	0xbb10cf4c	-0.0022096215
107	0x3b9ff96c	0.0048820283
108	0x3c05f0a6	0.008175051
109	0xbb548b2c	-0.0032431586
110	0x3bb0d096	0.005395959
111	0x3bbff1c1	0.0058576767
112	0x3b603958	0.0034213867
113	0xba463f4b	-0.0007562532
114	0x3b6b5b80	0.0035912693
115	0x3b8c1d2a	0.0042759376
116	0x3b5998fb	0.0033202756
117	0xbc39cd31	-0.011340425
118	0x3c3ad0f9	0.011402362
119	0x385f8914	5.3295007e-05
120	0x3b9317b3	0.004488909
121	0xbc5d64d7	-0.013512812
122	0x3b9bb7be	0.0047521284
123	0x3ba6b61b	0.0050876266
124	0x3b989073	0.0046558916
125	0x39b35da7	0.00034211317
126	0x3c351206	0.01105166
127	0xbc49e37c	-0.012322303
128	0xbc022dfe	-0.007945536
129	0x3b9b8f82	0.004747332
130	0x3c18c103	0.009323361
131	0xbb165a76	-0.0022942103
132	0xbbbe8dba	-0.005815235
133	0x3bfcfe6f	0.0077207605
134	0x3c106eab	0.008815448
135	0x3b12359a	0.002230978
136	0x3c468d74	0.012118686
137	0x3b1de08a	0.0024090135
138	0xbc036c84	-0.008021478
139	0x3af0391b	0.0018327566
140	0xbb836729	-0.0040101004
141	0xbc3155a1	-0.010823638
142	0x3be313c6	0.0069298474
143	0x3c13a3db	0.009011234
144	0xbbe5fced	-0.0070186765
145	0x3ce6493d	0.028111095
146	0xbb5e56db	-0.0033926282
147	0x398209fd	0.00024802974
148	0x3c5c4770	0.013444766
149	0xbd1ea2e3	-0.03872956
150	0xbb29e7cc	-0.0025925515
151	0xbc0aea0a	-0.008478651
152	0x39369783	0.00017413315
153	0xbb41dff4	-0.002958295
154	0x3c6ae37c	0.014336463
155	0x3b9a12c4	0.004701944
156	0xbc2218bb	-0.0098935915
157	0xbb801483	-0.003908695
158	0xbb913397	-0.004431199
159	0xbc0a61b9	-0.00844615
160	0x3b8e1cfd	0.0043369518
161	0xbb52c3ce	-0.0032160166
162	0x3ba763fb	0.005108354
163	0xba6f3dfa	-0.00091263617
164	0x3baa17ef	0.0051908414
165	0x3c1b81e8	0.009491421
166	0x3bb408af	0.005494199
167	0x3c503b77	0.01270949
168	0xbc3acc73	-0.011401284
169	0xbc316cfb	-0.010829206
170	0x3b6c6972	0.0036073592
171	0xba654c05	-0.00087469845
172	0xbcaeffe3	-0.02136225
173	0xbd405e7e	-0.046965115
174	0xbc35c079	-0.011093252
175	0x3bf34ded	0.007425061
176	0x3c4e1ae5	0.012579654
177	0xbc94a299	-0.018143939
178	0x3d117acc	0.0355175
179	0x3bb7fd7b	0.005614934
180	0x3a8a76ad	0.0010563933
181	0xbbf2b1f5	-0.007406468
182	0x3b646c5b	0.0034854624
183	0x3c22da53	0.009939748
184	0xbc4dde80	-0.012565255
185	0xbc11c656	-0.008897385
186	0x3b983e62	0.0046461085
187	0xba1fb5a3	-0.00060924346
188	0xbced072a	-0.02893408
189	0x3b0b52fd	0.0021259182
190	0x3a8b1a77	0.0010612746
191	0x3c4a499b	0.0123466505
192	0xbc2dfa53	-0.010618764
193	0x3cd8d3de	0.026468214
194	0x3d2866b3	0.041113567
195	0xbb8c7353	-0.0042862087
196	0xbb0d2356	-0.0021535954
197	0xbb65c337	-0.0035058984
198	0x3c3f0b0a	0.011660347
199	0x3aa81c59	0.0012825831
200	0xbb6d0131	-0.003616404
201	0x39d55a36	0.00040693738
202	0xb992f316	-0.00028028403
203	0xbcd87543	-0.026423102
204	0x3b8bb7d3	0.004263857
205	0x3c626f9c	0.013820555
206	0xbcb8afb0	-0.022544712
207	0xbb6f77a0	-0.0036539808
208	0xbb111ad6	-0.002214124
209	0x3bfaf48a	0.007658546
210	0xbcd8b4b4	-0.026453353
211	0xbd276a2a	-0.04087273
212	0x3bbffe5c	0.0058591794
213	0xbcab741d	-0.02092939
214	0x3bab453d	0.0052267597
215	0xbaab01a6	-0.0013046756
216	0x3b789d16	0.0037935427
217	0xbc11afd3	-0.008892017
218	0x3b1cf68c	0.0023950664
219	0x3bc63212	0.0060484493
220	0xbca01242	-0.019539956
221	0x3a0742b1	0.0005159779
222	0x3b906c6e	0.004407457
223	0x3a32069b	0.00067911454
224	0xbc1b1265	-0.009464835
225	0x3bb538c7	0.00553045
226	0xbba7501a	-0.0051059844
227	0x3a0188d3	0.0004941348
228	0x3c1ff007	0.009761817
229	0xbc8f5082	-0.017494444
230	0x3b980b0a	0.004639988
231	0x3bd10547	0.006378803
232	0xbade14ef	-0.0016943495
233	0x3c3bf931	0.011472986
234	0x3b5d0809	0.0033726713
235	0x3add1b64	0.0016869125
236	0xbac257fb	-0.0014827246
237	0x3a6f81f7	0.0009136493
238	0xbaa8bdeb	-0.0012873983
239	0xbb36779c	-0.002784229
240	0xbb814dd6	-0.0039460463
241	0x3c9405c1	0.01806915
242	0x3b8c8a3f	0.004288941
243	0x3b5beeab	0.0033559005
244	0x3ce6a41f	0.02815443
245	0xbb107be0	-0.0022046492
246	0xbb930236	-0.0044863475
247	0x3ba55a71	0.005046182
248	0x3bf6a174	0.007526571
249	0xbd4cb787	-0.049979713
250	0x3b4ead47	0.0031536387
251	0x3b4d0abb	0.0031286913
252	0x3be4145d	0.0069604353
253	0xbc0eedc1	-0.008723677
254	0xbd031fc0	-0.0320127
255	0x3c58550b	0.01320387

fc2.bias f4 [20]
0	0x3b481aa5	0.003053346
1	0x3a1a61f1	0.0005889228
2	0x39972748	0.0002883023
3	0x3a60f777	0.0008581797
4	0x3b0c3425	0.0021393385
5	0x3750210d	1.2405461e-05
6	0x3aaabf6a	0.0013027017
7	0x39ffd084	0.00048792746
8	0x394864ba	0.0001911101
9	0xb9d09c16	-0.00039789145
10	0x3b030eba	0.0019997791
11	0xbaaf665d	-0.0013381947
12	0xbacd6b21	-0.0015672186
13	0xbb05c2f0	-0.0020410381
14	0xbb072aa0	-0.0020624772
15	0xbb072ab3	-0.0020624816
16	0xbb34341d	-0.0027496882
17	0xbb0b206b	-0.002122904
18	0xbb17945e	-0.0023129205
19	0xbafb931a	-0.001919362

layernorm.weight f4 [20]
0	0x3f8e2be7	1.1107148
1	0x3f8c77e8	1.0974092
2	0x3f810626	1.0080001
3	0x3f80ffd9	1.0078079
4	0x3f91f224	1.140202
5	0x3f83b017	1.0288113
6	0x3f82930a	1.0201123
7	0x3f80fa17	1.0076321
8	0x3f80efee	1.0073221
9	0x3f80b3a9	1.0054828
10	0x3f8271cd	1.0190979
11	0x3f7c031d	0.9844225
12	0x3f7ce833	0.9879181
13	0x3f7d133c	0.98857474
14	0x3f7d23ba	0.9888264
15	0x3f7d0b71	0.98845583
16	0x3f7ce0b8	0.98780394
17	0x3f7c3711	0.98521525
18	0x3f7d0563	0.98836344
19	0x3f7d0461	0.98834807

layernorm.bias f4 [20]
0	0x3d4cd475	0.050007302
1	0x3c4b64f1	0.012414203
2	0xbccfd89a	-0.025371838
3	0xbcc96f33	-0.024589157
4	0xbc4a9ef6	-0.012367001
5	0xbc2cbee3	-0.010543558
6	0xbd329b45	-0.043605108
7	0xbce77d61	-0.028258028
8	0xbcb27cd5	-0.02178804
9	0xbcf3f30d	-0.029778982
10	0xbd34bb3f	-0.044123884
11	0xbb0019a6	-0.0019546538
12	0xbaa2a97b	-0.0012410128
13	0xbae82f41	-0.0017714278
14	0xba98da25	-0.0011661692
15	0xbaf16398	-0.0018416522
16	0xbb04a2ee	-0.0020238715
17	0xbaf28fde	-0.001850601
18	0xbae881e0	-0.0017738901
19	0xbaac6e3d	-0.0013155412
