nca-code/runs/test_250607_193931/checkpoints/28e73c20.pth (torch, 106145 bytes, 6 tensors)

fc1.weight f4 [128, 180, 1, 1]
000000 22 6f 08 be cc 4c 1d 3d c0 8a ba bd 81 26 e5 bd
       -0.13323644 0.038403317 -0.09108496 -0.11188985
000010 91 84 6b 3d 7d 25 1c 3d 0f 1d b7 3b 60 0e 5c bc
       0.057499472 0.03812169 0.005588181 -0.013431162
000020 df 38 8e bd 66 c8 76 3c 8c 57 c5 3d cd 90 90 3d
       -0.06944441 0.015062427 0.09635839 0.070588686
000030 64 fb 34 3d 53 aa bf bc e5 b8 28 3d 2e f6 f0 bd
       0.044185057 -0.023396647 0.041191954 -0.11765705
000040 9e c5 64 3d 7f ef 0f 3d da 92 f6 bc 32 ea e4 bd
       0.055852525 0.03514051 -0.030099321 -0.11177482
000050 65 2e 30 3d 45 aa 69 bd c0 7d 98 b9 0c 49 8d bc
       0.043012995 -0.057047147 -0.0002908539 -0.017246746
000060 5d e6 e0 bd 73 e4 88 3d 18 0c 86 bd b5 5d e3 3d
       -0.10981438 0.06684198 -0.065452754 0.111018576
000070 56 71 32 3d 1b 37 94 3d 39 57 db 3d 81 c5 a4 bd
       0.043565117 0.07237073 0.10709996 -0.080454834
000080 d3 80 62 3b 92 fb 94 3d b2 0c 5a bd b9 a3 84 3d
       0.0034561648 0.07274546 -0.053234763 0.0647654
000090 00 c6 dc 3c f3 89 e2 3d a3 0a 39 bd 16 00 b1 3d
       0.026949883 0.11061468 -0.04517616 0.086425945
0000a0 70 05 bf bc 2f 48 a4 bc 83 ad 37 bd 22 d3 c8 bd
       -0.023318022 -0.020053951 -0.044843208 -0.098058954
0000b0 3c f9 7e 3d fe 9a a0 3c 6c 1b ed 3b a2 aa aa 3d
       0.062249407 0.019605156 0.007235935 0.08333327
0000c0 d8 f5 42 3c 22 8d de 3d 8f fb 99 3d 77 95 50 bd
       0.011899434 0.10866763 0.07518684 -0.05092379
0000d0 ef ce 69 bd 80 9d 5b bd cd c2 9f bd 10 2c ef 3c
       -0.057082113 -0.053617 -0.07800827 0.029195815
0000e0 17 67 e0 3d 01 e5 a8 bd f6 de aa bd 5c ab a4 bd
       0.10957163 -0.08246804 -0.08343308 -0.08040497
0000f0 34 0a 04 3d ca 9f e0 bd 4c 51 f6 bd 49 c6 ad 3c
       0.032236293 -0.10967977 -0.12027225 0.021212714
000100 08 55 18 bc ea c1 bb bd 2d bd d0 bd 38 9f bb 3c
       -0.009297617 -0.091678455 -0.101923324 0.02290307
000110 6f e4 ea 3d 56 e1 10 3d 8f 7e f3 bd a7 c9 cf 3d
       0.114693515 0.035371147 -0.118893735 0.10145884
000120 7a 72 00 3b 43 8c 28 bd 13 91 22 3d ec ff c5 bd
       0.0019599483 -0.04114939 0.039689135 -0.09667954
000130 1d be a6 bd 0c 55 2d bd 5f a7 bf 3c 3e 96 e7 3c
       -0.0814173 -0.042317435 0.023395238 0.028269883
000140 c8 dd 8d bd 32 31 c1 bd 5a 0d e2 3d 4d 05 ac 3b
       -0.06927067 -0.094332114 0.11037703 0.0052496553
000150 79 df ba bc 3d 01 c5 bd 73 fc 56 3d eb 92 87 bc
       -0.022811638 -0.09619377 0.052486848 -0.016549548
000160 ac b8 c8 bd 64 60 b8 3c b8 06 07 3e fb 19 fa 3c
       -0.09800848 0.0225069 0.13186157 0.030529967
000170 8e 4c 89 3d e1 22 86 bd 4a 9c de bd f0 bb 26 bd
       0.06704055 -0.065496214 -0.108696535 -0.040706575
000180 14 b8 6c bd 8b 92 61 bd ff 81 cc bd 8e 22 3f 3d
       -0.057792738 -0.055071395 -0.09985732 0.046663813
000190 6a 9a ba 3d d0 40 b5 bd a9 dd a5 3d 7a 0d ce 3d
       0.091114834 -0.08850253 0.08098919 0.10061164
0001a0 6f b5 ba 3d eb aa 8f 3d 6e b1 05 3e f6 33 7b bd
       0.09116637 0.07015022 0.13055965 -0.06132885
0001b0 aa 81 d4 3d 18 94 05 bd 1b 4b b3 bd 2a 1d 72 3d
       0.10376294 -0.032611936 -0.087545596 0.059109844
0001c0 60 a6 d2 3d 0d bc 9b 3d c9 2b 1d 3d c1 81 1c bc
       0.1028564 0.07604227 0.038371835 -0.00955242
0001d0 d5 19 8e 3c 4f d3 0f bd 4b b6 83 3d 92 c5 ef bc
       0.017346302 -0.03511363 0.06431254 -0.029269014
0001e0 fd 34 4b 3c 6e aa d3 bd a4 dd cb bc 39 18 da bc
       0.01240277 -0.10335241 -0.02488596 -0.026622878
0001f0 f8 58 83 3c 90 19 29 bd 3c 1b da bd 5d d7 96 3b
       0.016033635 -0.041284144 -0.10649726 0.00460331
000200 aa c7 90 3d 21 9a 3d bb f3 35 c3 3d c8 c4 ca 3d
       0.07069333 -0.002893098 0.09531774 0.09900814
000210 c2 56 05 bd c7 ab 17 bc 91 3e 93 bd dc af 76 bd
       -0.03255344 -0.0092572635 -0.07189668 -0.060226306
000220 51 d8 36 bd 57 69 e6 bd a4 c5 c8 3b 81 6d ba 3d
       -0.04463989 -0.11250561 0.006127076 0.091029175
000230 91 3d df 3c 25 81 b3 bc 77 10 44 bd b2 b6 96 bc
       0.027251037 -0.021912167 -0.047867265 -0.018397663
000240 68 b3 cc 3d 5f ec bf bd 89 ce 90 3d 6c a0 2a bd
       0.099951565 -0.09371256 0.070706435 -0.041656896
000250 d9 f6 06 3e fd b9 ad 3c bd be 46 bc 2c 02 85 3d
       0.13180102 0.02120685 -0.0121304365 0.06494555
000260 33 f0 17 bd e4 f9 e5 3d 99 3c ca bc f5 58 a7 bd
       -0.037094306 0.112293035 -0.024687098 -0.08171264
000270 23 37 0f bc ff 04 32 bb 74 4d e2 3c 5c bf 38 3c
       -0.008741173 -0.0027163622 0.027624823 0.011276092
000280 47 e4 1d 3c 18 3e 35 3c 7a 99 d9 bc 54 e0 04 3c
       0.009636945 0.011062168 -0.026562441 0.008110125
000290 00 81 5e bd 8e 8e a9 bd a8 9f 06 3e c8 19 a6 3d
       -0.054322243 -0.08279143 0.13146842 0.08110386
0002a0 24 82 a4 3d 36 5c 08 bd 2b 1d a0 bd ab e6 b7 3d
       0.08032635 -0.033291064 -0.07818063 0.08979543
0002b0 a0 7c 37 bd bf 0e c9 3c 8d f0 d1 bd 2c 90 ce bd
       -0.044796586 0.024543164 -0.102509595 -0.10086092
0002c0 48 0e da 3d 2d 14 90 3d b8 fb 7b bd cf 68 67 3d
       0.10647255 0.07035098 -0.061519355 0.056496438
0002d0 d7 c5 fb bd c3 c3 3c 3c 8f ac b9 bc 5e 8c 38 bd
       -0.12293594 0.011521283 -0.02266529 -0.04505574
0002e0 fb d3 07 3e f0 22 3e 3c 35 0b c8 3d 56 d6 e1 bb
       0.13264458 0.011605009 0.097677626 -0.006892006
0002f0 26 73 97 bd 60 c0 4b bd d6 72 0f be 99 b1 06 3e
       -0.0739501 -0.04974401 -0.1400865 0.13153686
000300 a5 34 a8 bc 55 59 71 bd ba de cb 3d 27 f5 d9 3c
       -0.020532915 -0.058923084 0.09954591 0.026606156
000310 cd 0c 69 3c ff 35 ad bc 0c 85 e5 bc f8 27 0e bd
       0.014224243 -0.021143911 -0.028017543 -0.034706086
000320 11 d4 06 bd 7e bf a6 3d 26 99 2c bd c7 9f 8a bc
       -0.032917086 0.08141993 -0.04213824 -0.01692189
000330 6a 12 2c 3c 51 a1 96 bd be 00 ed bc 20 20 dd 3d
       0.010502437 -0.073549874 -0.028931018 0.10797143
000340 f6 ed 42 3c 64 3e ca 3d 57 6c b2 3c 90 7e 82 bd
       0.011897555 0.09875181 0.021780176 -0.06371796
000350 35 ce 77 3d bd 3c 10 3d 49 46 4b 3d 3c ef 36 bd
       0.06049939 0.035214175 0.049627576 -0.044661745
000360 9b 79 87 3d 3e 9b 92 bc 5f fc 2c 3d 46 e9 69 3d
       0.06614991 -0.01789629 0.042232867 0.057107233
000370 b4 cb b3 bd d4 e1 44 3d fb 78 cc 3d 22 4a 41 3a
       -0.08779088 0.04806693 0.09984013 0.00073734124
000380 d8 8d 5c bd bc 87 87 3d e0 6a 61 3d d1 b4 6a bd
       -0.05384621 0.06617686 0.055033565 -0.057301346
000390 96 66 04 bd dd dc a3 3c e1 c0 af 3d da 9d 8f bd
       -0.032324396 0.020002777 0.085817106 -0.0701253
0003a0 15 53 99 3d 0d e1 59 3d 9c fd 70 bc ea 30 87 bd
       0.0748655 0.05319314 -0.014708903 -0.066011265
0003b0 5e 9e 91 3d d5 73 63 ba 46 cb 98 3d 23 6a 87 bd
       0.07110284 -0.0008676623 0.07460646 -0.06612041
0003c0 a7 ec c5 3d 61 a9 fd bb 60 b6 b3 3d 0c 7b ee bb
       0.096642785 -0.007741139 0.0877502 -0.007277852
0003d0 3a 32 a8 bd bd bc a1 bd 3e a6 05 3d 9f ae 65 3d
       -0.08212705 -0.07897327 0.032629244 0.056074735
0003e0 0b ce d3 3d f1 3e ef 3c d6 b6 45 3d 1a e1 8f bd
       0.10342034 0.029204817 0.04827007 -0.070253566
0003f0 5c 06 56 3d b4 35 0e 3d bb 4a 0d bd da 68 b5 bc
       0.05225216 0.034719184 -0.034495097 -0.022144724

fc1.bias f4 [128]
000000 79 16 21 bc cb a3 e6 3b a8 ad 1d bc f0 ca a4 3b
       -0.009832018 0.0070385686 -0.009623922 0.005029075
000010 7e 60 fc bb ce ab 3f bc df bc df bb 13 bf e1 bb
       -0.0077019325 -0.011698676 -0.006827935 -0.006889233
000020 3b d3 ba bb de bd 50 bb ac a9 07 bc 8c 6c 89 bc
       -0.00570145 -0.003185145 -0.008280199 -0.016775392
000030 f8 1f e1 bb a8 01 7d 3b 5f e0 fd 3b f7 95 fc bb
       -0.006870266 0.0038605724 0.0077476944 -0.007708307
000040 e2 f8 6a ba 37 7a 1f 38 11 32 d6 bb 1e 4b b4 3b
       -0.0008963478 3.8022376e-05 -0.00653673 0.0055021187
000050 20 5d 23 bc 85 f6 03 bc 0a ff 26 3b 50 8d ed bb
       -0.009970933 -0.00805438 0.0025481605 -0.007249512
000060 d0 b1 27 bc 99 ba 01 bc 81 3e 13 bb b4 8a 05 bc
       -0.010235265 -0.0079180235 -0.0022467675 -0.008150745
000070 83 a7 7c bc ce 1c 06 bc 30 07 cc bb 0d 0d 23 bc
       -0.015420797 -0.0081855785 -0.0062264428 -0.009951842
000080 51 b2 2e 3c e2 8a f3 bb 2d 7a 33 3c dd 04 fa 3a
       0.010662631 -0.0074323276 0.010954422 0.0019074936
000090 c5 26 a3 bb 9c 22 0a bc f2 85 e6 3c 13 aa 33 3c
       -0.004978987 -0.008431103 0.028140042 0.010965842
0000a0 76 b3 82 bb 80 51 00 bc 6a b8 b7 3c a8 9f c6 3c
       -0.0039886786 -0.007831931 0.022426803 0.024246052
0000b0 e8 97 c9 3c 29 da 82 3c ee a3 99 3b 57 a7 02 bc
       0.024608567 0.015973167 0.0046887314 -0.007974467
0000c0 a6 ab f4 3a 25 1a b2 3c 8e 23 c9 3c f9 1d d7 bb
       0.0018666878 0.021740982 0.024553087 -0.0065648523
0000d0 9a 30 f1 bb dc 5b 27 3c 15 af 03 bc 24 9f e0 ba
       -0.00736053 0.010214772 -0.008037348 -0.0017137271
0000e0 f9 d4 10 bc 9b 7e 06 bc 79 84 65 bb 8b 4d a7 3a
       -0.008839839 -0.008208896 -0.0035021587 0.0012764198
0000f0 b1 61 c2 3b eb 47 4a 3b 82 cf eb bb 65 ed 2e 3c
       0.005932056 0.003086562 -0.0071963677 0.010676716
000100 1b 5d 04 bc 94 66 21 bc 8d 0a 02 bc 92 ea ab bb
       -0.008078839 -0.009851117 -0.007937086 -0.005246469
000110 dd 6c 05 3c 1b 4e 3a bc e2 d5 eb bb c7 49 ff 3c
       0.008143631 -0.011371161 -0.0071971277 0.03116311
000120 28 24 c1 bb 1f c0 d9 3b e1 20 e8 bc a1 e7 b5 bb
       -0.0058942027 0.006645217 -0.02833599 -0.005551294
000130 76 bb 30 bc ae ee 76 ba b5 55 bb 3b 02 95 51 3c
       -0.010786882 -0.00094197213 0.005717004 0.012791874
000140 0c 4b 12 bc 45 ba 69 bb 80 01 0f bc 5e f0 b4 3c
       -0.008929025 -0.0035664004 -0.008728385 0.022087272
000150 85 66 08 3b 25 5f 5d 3b 74 45 09 bc 79 ac 85 bb
       0.002081306 0.0033778634 -0.008378375 -0.0040793982
000160 fa 28 2f bc a7 65 c4 3a b8 4a b6 bb 20 08 4d bb
       -0.010690922 0.0014983908 -0.0055631064 -0.003128536
000170 4f 48 e4 bb a6 d8 00 bc a4 72 91 ba 03 4a 14 bc
       -0.0069666277 -0.007864153 -0.0011096788 -0.009050849
000180 6a 8f fd bb 8f ad 84 3a a7 6e 8a bc 46 b0 db 3b
       -0.0077380436 0.0010122525 -0.016898466 0.006704363
000190 b7 15 2b bc 6a 65 33 bc 18 cd 54 bc 90 2f 7e ba
       -0.010442189 -0.010949472 -0.012988351 -0.00096964184
0001a0 ef 55 ef bb ea de 14 3c 4a 6d 15 bc 8c ee f7 ba
       -0.0073039453 0.00908635 -0.009120295 -0.0018915697
0001b0 60 7c 16 bb 8e be 52 bc 6f 1b 18 bc 23 f3 3a bb
       -0.0022962317 -0.012862815 -0.009283884 -0.0028526268
0001c0 5a c9 9e bb a8 e9 7c bc 13 e3 c8 3c 84 f5 9c bb
       -0.0048457803 -0.015436567 0.02452234 -0.00479001
0001d0 2e 11 ab bb e0 16 84 bc 65 de 2d bc 13 d0 9b bb
       -0.005220554 -0.016124189 -0.010612105 -0.004755029
0001e0 37 86 23 3b 5e 34 7d bc 3a 91 2b bc 4a 5f c2 bb
       0.0024951824 -0.01545438 -0.010471636 -0.0059317695
0001f0 28 79 18 bc d7 85 e3 ba cf d1 8d 3a 31 7c c2 3a
       -0.00930623 -0.0017358613 0.0010819974 0.0014838037

fc2.weight f4 [20, 128, 1, 1]
000000 9e 7b b7 3b cd f2 88 bc 67 9c 02 3c 47 be a9 3c
       0.005599453 -0.016717339 0.00797186 0.020720614
000010 24 ab 9d bb 8e 8e 37 3c 35 3d 5e 3b 70 b4 96 bb
       -0.0048116613 0.011203421 0.0033910994 -0.0045991465
000020 ba c4 53 3b 16 73 79 bc 1a b4 30 b9 28 40 a5 bb
       0.0032313303 -0.0152251925 -0.00016851761 -0.0050430484
000030 60 b5 7d 3c 9d 2f 97 bc ad 5c c3 3b 70 6c d0 3b
       0.015485138 -0.018455321 0.0059619755 0.006360583
000040 c7 61 11 bc 53 9d 0b bb 4f be 81 bb 71 2f 5b bc
       -0.00887341 -0.002130349 -0.003959454 -0.01337801
000050 c4 e8 9e 3a 99 cb a8 3b 29 54 2c bc ca 0a bd 39
       0.0012123813 0.005151224 -0.010518112 0.00036056928
000060 b9 ea ce 3a 8f 99 45 3b 8b f3 57 bc ee c1 31 3c
       0.0015786506 0.0030151343 -0.013180624 0.010849459
000070 7b 07 3b bc a6 f6 c5 3b d7 9a a3 bc 07 dc 27 3b
       -0.011415358 0.0060413657 -0.019971294 0.0025613324
000080 44 ef 10 bc b6 13 c6 3b 8e dc c1 bc 82 6d 07 bc
       -0.008846108 0.00604483 -0.023664739 -0.008265855
000090 b5 eb 81 bc 85 2d c9 3b bf 9d 88 bc 00 29 ba bc
       -0.015859464 0.0061394596 -0.016676782 -0.022724628
0000a0 f3 5d b5 3b 52 a3 99 3b 7e ca 0a bc 6e f0 49 3b
       0.0055348813 0.0046886588 -0.008471129 0.0030813473
0000b0 28 44 10 3b 24 84 e5 bc 4c 4e 75 bc f8 05 08 3b
       0.002201328 -0.028017111 -0.014972281 0.002075551
0000c0 b6 31 9a bc 5a 97 e3 bb 5f 0c 3e bc 7a a4 89 3b
       -0.018822532 -0.0069455327 -0.011599629 0.0042005153
0000d0 01 cf cd 3b bd 44 83 bc 40 53 3d 3b d9 49 5c bc
       0.0062807803 -0.016023988 0.0028888732 -0.013445341
0000e0 70 4b 8f 3b f4 9f b5 3b 37 fb 8b bc 89 2e 86 bc
       0.0043730065 0.0055427495 -0.017087562 -0.016379612
0000f0 14 b5 7e 3c eb ba 85 bc 3a cb b1 3b 61 10 c8 bc
       0.015546102 -0.016324481 0.005425838 -0.024421873
000100 4b 72 4a 3b 56 21 c6 3b a9 3c f4 3b f9 34 61 bc
       0.0030890878 0.0060464544 0.0074535203 -0.01374554
000110 c2 c0 3f ba b4 19 54 bc 3d a7 95 3b 1c 62 a4 bc
       -0.0007314795 -0.012945581 0.0045670555 -0.020066313
000120 73 71 9f 3b eb 4b 67 bc 3a 39 a5 bc 8a a1 73 bb
       0.004865819 -0.014117221 -0.02016889 -0.0037175142
000130 f2 e4 66 39 ce 18 6d bc fc 29 ed 3b 5b d3 24 3a
       0.00022019798 -0.014471246 0.007237671 0.0006287598
000140 41 07 73 b9 03 d9 38 bb b2 67 6e 3b 21 1e b6 bb
       -0.00023176988 -0.002820552 0.0036377725 -0.005557791
000150 b3 f8 5d bc 5f 96 84 3b 0f fc 05 3c d6 8c 64 bc
       -0.013548064 0.004046246 0.008177771 -0.0139495935
000160 7b dc fd bb 2d 43 34 bc 84 c3 a5 3b d0 0b f1 3b
       -0.0077472306 -0.011002344 0.0050587077 0.0073561445
000170 52 72 b6 3b ad 65 ba 3b 47 3c 2d bc 01 c3 b6 3b
       0.0055678273 0.00568839 -0.010573453 0.0055774455
000180 08 a4 a9 3b db 04 65 bc 23 27 43 bc b4 b8 97 bc
       0.0051770248 -0.013978208 -0.011911186 -0.01852069
000190 9c 09 1d 3c 30 d0 78 bc 31 1c dd bb 23 58 4a bc
       0.009584811 -0.0151863545 -0.0067477454 -0.012350115
0001a0 34 3c 8e 3b 10 55 27 bc f9 df a4 3b 98 bb 61 bc
       0.004340673 -0.010213152 0.0050315824 -0.013777636
0001b0 66 6c 4a bc 2c 0b cb bb fb 8f 5f 3b d7 ae 86 bc
       -0.012354946 -0.0061964 0.0034112919 -0.016440792
0001c0 38 1c df 3b 47 47 4a bb ed 09 94 bc 02 96 4a 3b
       0.006808784 -0.0030865239 -0.01807114 0.0030912166
0001d0 f4 6d 0a 3b 52 47 86 3b 2d 75 4e 3b a7 8c 2e 3b
       0.0021122666 0.0040978575 0.0031502948 0.0026634128
0001e0 6d dc 11 bd d8 3f c6 bb 44 88 a9 bb 07 56 c6 bb
       -0.035610605 -0.0060500912 -0.005173715 -0.0060527357
0001f0 07 20 d3 3b 5a dc 64 bc a8 07 56 bc a2 9e 1b ba
       0.006443027 -0.0139685515 -0.013063349 -0.0005936419
000200 87 7d 9e 3b 84 63 b6 bc cd 9e 9f 3a 4e 9b 79 bc
       0.0048367414 -0.02226425 0.0012178064 -0.015234781
000210 18 05 73 bc a5 ae 0c 3b 29 fb 91 3a dd 07 23 3c
       -0.014832757 0.00214664 0.0011137474 0.009950605
000220 1a ac 73 bb eb dc 88 3c fa c6 b1 3a 18 33 f1 bb
       -0.0037181438 0.016706904 0.0013563328 -0.007360827
000230 85 ef 04 b9 be 7b 1e bc 31 f9 e7 3c 4d d3 51 39
       -0.00012677729 -0.009673057 0.028317066 0.00020010509
000240 a0 c0 b2 bb 87 8f 5c bc c9 60 6f 3c 1c 50 7e bc
       -0.0054550916 -0.013461954 0.014610478 -0.015522029
000250 c9 d5 0f bc 97 d0 2c bb 01 01 03 3d 8e 9c 41 bc
       -0.008778998 -0.0026369446 0.03198338 -0.011817111
000260 f2 f6 06 3c 88 d0 c4 3a 57 3e 55 bb fb ae 10 bc
       0.008237587 0.001501576 -0.0032538378 -0.008830781
000270 ed 84 dc 3b 78 44 2d bb c5 ef 71 bc ba 7a 25 bb
       0.006729713 -0.0026438516 -0.014766638 -0.0025250153
000280 89 6e 0f bd cb bb 0a 3b 9a 99 2b bd 39 7e 0b 3c
       -0.035017524 0.0021169062 -0.041894533 0.008513981
000290 87 f9 c8 3a 80 c8 11 ba 47 1b 0c 3d ec fa 00 bd
       0.0015333154 -0.0005561188 0.0342057 -0.031489298
0002a0 3e 41 e9 bb f5 8a ea ba b4 b5 13 3d fa bc 8a bd
       -0.007118373 -0.0017894196 0.036061957 -0.06774326
0002b0 91 36 02 3d 32 3a 8d bc 11 57 8b 3c da c3 34 bc
       0.03179032 -0.017239664 0.01700929 -0.011033023
0002c0 78 2d 55 bc 24 88 50 bd 65 21 70 bc a2 fe 8b 3b
       -0.013011329 -0.050911084 -0.014656399 0.004272298
0002d0 7b 9d 8e bb 8f 4d 40 3c 5d 08 a1 bb 5c 1c a2 3a
       -0.004352269 0.011737241 -0.004914327 0.0012368071
0002e0 46 06 bd 3b 43 b4 e2 38 81 a9 02 bd ed 55 7f bc
       0.00576857 0.00010810096 -0.031899933 -0.015584451
0002f0 3f 5d e2 bb 57 45 ec bc 6a b3 d1 ba c1 11 a9 bc
       -0.0069080885 -0.028841658 -0.0015998904 -0.020638349
000300 8c bb a3 3b 84 76 22 3b 92 06 25 3a 1d 94 0b 3c
       0.0049967226 0.002478988 0.00062952295 0.0085192
000310 9e 74 50 bd 2e fa 18 bc 57 bf 02 3a 4f 94 d8 3d
       -0.050892465 -0.009336991 0.00049876183 0.105751626
000320 d4 dc 23 3b 5a d8 f2 3c a2 71 d1 bc 22 da 7d 3c
       0.002500345 0.02964418 -0.02556688 0.015493901
000330 fc 1b b7 ba e4 f3 a8 bb ec d9 ad 3b 7e 80 6a bc
       -0.0013970132 -0.005156027 0.0053055193 -0.0143128615
000340 a6 fa 9d bc f0 4a d1 bb e7 e4 de b8 40 be 87 bc
       -0.019284558 -0.006387107 -0.00010628421 -0.01657021
000350 cd 7a 06 3a 36 52 21 bd b5 de 7b bb a0 d1 fc ba
       0.0005129993 -0.039385043 -0.0038432304 -0.0019288547
000360 6f c6 90 bc 10 a2 3a bc 95 c4 85 bb 44 b8 ce 3b
       -0.017672746 -0.011391178 -0.0040822723 0.0063085873
000370 6e 4d ba ba 91 b3 4e bb 55 1b 0a bb e7 3f 29 bc
       -0.001421375 -0.0031540135 -0.002107342 -0.010330177
000380 c6 c9 e1 bb be 4c ae bc 91 be f9 3a 10 3e ef bc
       -0.0068905083 -0.021276828 0.0019053986 -0.029204398
000390 3e b7 ea 3a a2 3e e2 bc 07 4a e0 bc ea 8b 9e 3c
       0.0017907394 -0.027617756 -0.027379049 0.019353826
0003a0 80 7c ba bb 54 28 43 3b 7e 8b b1 bb b8 6f aa bc
       -0.005691111 0.0029778676 -0.00541824 -0.020805225
0003b0 35 6c 88 bc 23 a1 a9 bb 2d be a9 3b 1c df a6 3c
       -0.01665316 -0.0051766797 0.0051801414 0.020370059
0003c0 df c5 b3 3b af a7 47 3c 02 76 35 bc 28 74 07 3c
       0.0054862346 0.012185975 -0.011075499 0.00826744
0003d0 99 a7 35 3b 59 76 c5 3c 63 42 46 ba 9b 3a 6a 3c
       0.0027718304 0.024104284 -0.0007562993 0.014296199
0003e0 d9 09 0d 3d 2e c8 12 3c 4f 18 ec 3b fe 93 9e 3b
       0.03443322 0.008958859 0.0072050462 0.0048394194
0003f0 31 8b 08 bb 8f 6b aa 3b 07 51 fc 3b 5e 64 7e bc
       -0.0020834918 0.0052008103 0.007700089 -0.015526859

fc2.bias f4 [20]
000000 6f 48 87 3b 41 12 76 ba fa 02 c7 b9 2b c1 7a ba
       0.004128508 -0.00093868753 -0.00037958456 -0.00095655274
000010 b2 55 fc b9 45 66 34 ba 1c f3 47 b9 62 2b 4f ba
       -0.00048129034 -0.00068816944 -0.00019068684 -0.0007902888
000020 9f 8a 3f b9 25 be 63 ba 57 a9 13 39 5b 4c cf b9
       -0.0001826682 -0.00086876965 0.00014082096 -0.00039539006
000030 e8 ea 06 ba a7 64 a5 ba 5d d3 c9 b9 65 af 1d ba
       -0.0005146698 -0.0012618498 -0.00038495185 -0.00060152105
000040 4b e7 cd b9 6a f3 11 ba 2b 91 aa b9 67 c1 8d ba
       -0.00039272974 -0.00055675826 -0.00032533085 -0.0010815085

layernorm.weight f4 [20]
000000 42 c4 91 3f c1 f4 88 3f c5 c1 82 3f a5 c7 81 3f
       1.1388018 1.0699693 1.0215384 1.0139052
000010 55 ee 89 3f 52 56 82 3f 04 88 83 3f 0e da 81 3f
       1.0775858 1.0182593 1.0275884 1.014467
000020 a5 2b 83 3f 00 62 82 3f 75 06 83 3f f9 00 7a 3f
       1.0247694 1.0186157 1.0236346 0.97657734
000030 3f af 7b 3f ad 1c 7b 3f f2 e9 7a 3f 7a db 7a 3f
       0.9831428 0.9809063 0.9801322 0.97991145
000040 5f ab 7b 3f 92 01 7c 3f 4f d7 7a 3f 35 39 7b 3f
       0.98308367 0.98439896 0.97984785 0.98134166

layernorm.bias f4 [20]
000000 db a0 dc 3d 70 17 14 bc 69 30 30 bd 89 2e ee bc
       0.10772868 -0.009038791 -0.043014918 -0.029074924
000010 69 72 8d 38 14 6d 18 bd 12 c9 48 bd 9a 07 fe bc
       6.7447145e-05 -0.0372134 -0.04901988 -0.031009484
000020 4a 87 37 bd 77 ee 0f bd b8 4a 3f bd 79 ea d1 ba
       -0.044806756 -0.035139527 -0.046702117 -0.0016015313
000030 79 09 56 39 2f b2 d6 ba 48 30 0a ba 6e f0 69 ba
       0.00020412159 -0.0016380007 -0.00052714767 -0.00089240714
000040 4e 16 43 ba 93 ff 64 ba cd 43 1e ba 6e 7e 8e ba
       -0.00074419833 -0.00087355933 -0.0006037325 -0.0010871419
