nca-code/runs/test_250607_193931/checkpoints/71e489b6.pth (torch, 106145 bytes, 6 tensors)

fc1.weight f4 [128, 180, 1, 1]
0	0x3bcc9b6f	0.006244115
1	0xbdf03cee	-0.117303714
2	0xbd826775	-0.06367389
3	0xbddfb0fe	-0.109224305
4	0xbc0ecbe8	-0.008715607
5	0x3dad4218	0.08459872
6	0xbdaca80e	-0.084304914
7	0x3d4b7be3	0.049678694
8	0x3d612fd7	0.054977264
9	0x3d803c0f	0.06261455
10	0xbcbbde2b	-0.022933086
11	0x3de48fdb	0.11160251
12	0x3d46367f	0.048391815
13	0xbbf4f66a	-0.007475664
14	0xbd2037e0	-0.039115787
15	0xbde8456c	-0.11341366
16	0xbdf76867	-0.1208046
17	0x3d469cde	0.048489444
18	0xbdb132a6	-0.086522385
19	0xbcdc82e6	-0.026917886
20	0xbd02dc9d	-0.031948674
21	0x3cbd1557	0.023081465
22	0xbce424d5	-0.027849594
23	0x3d927ad3	0.07152333
24	0x3d9023b9	0.070380636
25	0xbd874d02	-0.06606485
26	0x3ddd3542	0.10801174
27	0x3ceec3bc	0.029146068
28	0xbd9a1681	-0.075238235
29	0x3cc687a5	0.024234602
30	0xbd51e871	-0.051247064
31	0xbc8f3f0e	-0.017486122
32	0xbde6afa5	-0.1126397
33	0xbd49f60d	-0.049306918
34	0x3cf690a1	0.030098261
35	0xbccd0671	-0.025027486
36	0xbd809020	-0.0627749
37	0xbceaf22b	-0.028679928
38	0xbdcfd231	-0.10147513
39	0xbda63d44	-0.08117154
40	0x3d666f18	0.05625829
41	0xbdb4f641	-0.08836032
42	0x3d5a1df4	0.05325122
43	0xbd98dcb1	-0.074639685
44	0x3daecfbd	0.08535717
45	0x3b93b769	0.004507948
46	0xbd50026c	-0.05078356
47	0x3dd9e042	0.10638477
48	0x3db8ab5a	0.09017058
49	0xbd9f5aef	-0.07781016
50	0xbd6cfc66	-0.057857893
51	0x3d7cae69	0.061689768
52	0x3c035335	0.008015444
53	0x3dad99be	0.084765896
54	0x3dc04d7c	0.09389779
55	0xbbdf999d	-0.006823732
56	0x3d1601f7	0.036622968
57	0xbdc1e928	-0.09468299
58	0x3a8739f2	0.0010316952
59	0xbce3f148	-0.027825013
60	0xbdc5cf6b	-0.096587025
61	0x3d87604c	0.06610164
62	0xbda45594	-0.08024135
63	0xbddd6fb2	-0.1081232
64	0x3cf8eddf	0.030386863
65	0xbdcd4b84	-0.10024169
66	0x3d21c698	0.039496034
67	0xbdd2a623	-0.10285594
68	0xbb8a4f68	-0.0042208917
69	0xbdd1d47b	-0.102456056
70	0xbd76e3bb	-0.060275774
71	0xbd2f7c75	-0.0428433
72	0xbdcfd98e	-0.10148917
73	0x3dc1602d	0.09442172
74	0xbc93dade	-0.0180487
75	0xbbc414a8	-0.0059839077
76	0xbcdb6992	-0.026783738
77	0x3d1ad20f	0.037797984
78	0x3db70034	0.089355856
79	0x3d59bf99	0.053161237
80	0xbd83ac59	-0.06429357
81	0xbcfc28a1	-0.030781092
82	0xbd2a0349	-0.04150704
83	0xbd6dc678	-0.058050603
84	0xbddcaa02	-0.10774614
85	0x3d999bf3	0.07500448
86	0x3ddd120b	0.10794457
87	0x3c574855	0.013139804
88	0x3d6e4c79	0.0581784
89	0x3dd1b6c0	0.10239935
90	0x3d47e4cf	0.048802193
91	0x3c5e4ea2	0.013568552
92	0xbd79b573	-0.06096406
93	0x3d4a0da7	0.049329426
94	0x3cdbbddc	0.02682393
95	0x3cbe3071	0.023216458
96	0xbdafb21d	-0.08578894
97	0x3d9fb99d	0.07799075
98	0x3db421ec	0.087955326
99	0x3dbe96bf	0.09306096
100	0xbc774931	-0.015093134
101	0xbd5926fe	-0.0530157
102	0xbdbcfdf2	-0.09228124
103	0x3dcffe1b	0.10155889
104	0xbd12562c	-0.03572671
105	0xbb4bb7d1	-0.0031084905
106	0x3dce3217	0.10068148
107	0xbd4ae65f	-0.049536105
108	0xbd3bd16c	-0.045854017
109	0x3d4bfa0a	0.049799003
110	0x3d80e948	0.06294495
111	0x3d232698	0.039831728
112	0x3cc38358	0.02386634
113	0xbdf0bbbd	-0.11754558
114	0xbdecc317	-0.11560648
115	0xbcfa1f1c	-0.030532412
116	0xbc1900bd	-0.009338555
117	0xbd4f1473	-0.05055661
118	0xbba672fe	-0.005079626
119	0x3d526637	0.05136701
120	0x3c83fdae	0.016112175
121	0x3d8316be	0.06400822
122	0x3dfe1098	0.12405509
123	0x3d0ae587	0.0339103
124	0x3cb8acbe	0.022543307
125	0x3d0423f7	0.03226086
126	0xbd983386	-0.07431702
127	0x3d62c6d3	0.055365395
128	0x3d291a32	0.041284747
129	0xbc11e7df	-0.00890538
130	0x3d94efb2	0.07272281
131	0xbc4e4ee9	-0.012592056
132	0xbd8c9e84	-0.06866172
133	0x3dac268c	0.0840579
134	0xbd901b86	-0.070365
135	0x3d13f62f	0.03612345
136	0x3ce0cabd	0.027440423
137	0x3c918e50	0.017768055
138	0x3daaec1d	0.08345816
139	0x3d911b96	0.0708534
140	0xbd870e4d	-0.065945245
141	0xbc15013d	-0.0090945335
142	0x3b5b6e6a	0.003348256
143	0xb94b5fb1	-0.00019395236
144	0xbd63a22f	-0.055574592
145	0xbdbb7515	-0.09153191
146	0x3b33749e	0.0027382742
147	0x3d4fc11f	0.050721284
148	0xbdc750db	-0.09732219
149	0x3b853c4a	0.004066025
150	0x3d37ba07	0.044855144
151	0xbd6d6d64	-0.05796565
152	0x3dc1816a	0.09448512
153	0xbcf7bb86	-0.030240785
154	0xbce17972	-0.02752373
155	0x3d3f54a7	0.04671159
156	0xbdc0d225	-0.09415082
157	0xbd378231	-0.044801895
158	0x3d294fab	0.041335743
159	0xbcb13789	-0.021632927
160	0xbdd2088a	-0.10255535
161	0x3dfb6a03	0.122760795
162	0xbc836136	-0.016037565
163	0xbd6b6322	-0.057467587
164	0x3c0e7398	0.008694552
165	0xbda45115	-0.08023278
166	0x3c242ab1	0.010019944
167	0x3d19a29d	0.037508596
168	0xbcb8bafb	-0.022550097
169	0xbdd2f431	-0.10300482
170	0x3cbc044d	0.02295127
171	0xbddd7f4b	-0.10815295
172	0x3db2fe4f	0.08739912
173	0x3c0e382b	0.008680384
174	0x3daee0a3	0.0853894
175	0x3dd9d687	0.10636621
176	0xbd1290c2	-0.035782583
177	0xbdb59a1f	-0.08867287
178	0x3da648ef	0.0811938
179	0xbbd2915f	-0.006426021
180	0xbdf4d111	-0.11953939
181	0xbdddeaf7	-0.108358316
182	0xbd1907f3	-0.037361097
183	0x3dee6a6d	0.11641393
184	0xbdc842fd	-0.09778402
185	0xbd507d2a	-0.050900616
186	0xbdc81b99	-0.09770889
187	0xbd927f8e	-0.071532354
188	0x3ca655b6	0.020304542
189	0x3d4befb3	0.049789142
190	0xbe010110	-0.12598062
191	0x3d453168	0.04814282
192	0xbd7f6c5c	-0.0623592
193	0x3e00ceb6	0.12578854
194	0x3d9f4341	0.077764995
195	0xbdd5642e	-0.104194984
196	0xbb6c74f2	-0.0036080447
197	0xbd589de6	-0.05288496
198	0x3db77646	0.08958106
199	0xbd7b8676	-0.06140753
200	0x3cc66c05	0.02422143
201	0xbd3df929	-0.046380196
202	0x3c9fdee8	0.01951547
203	0x3de2344c	0.11045131
204	0xbdfffe4f	-0.124996774
205	0xbdf8fdd2	-0.121577874
206	0x3dd7fa4c	0.10545787
207	0xbd630e8c	-0.055433795
208	0xbda2404b	-0.07922419
209	0x3c60f3d0	0.013730004
210	0x3e0e99f8	0.13925922
211	0x3d6cca3a	0.057810046
212	0xbd68e20c	-0.0568562
213	0x3d483280	0.048876286
214	0x3df64c12	0.12026228
215	0x3d4bb0fe	0.04972934
216	0x3d9ec0e0	0.07751632
217	0x3dacfa18	0.08446139
218	0xbd26fe42	-0.040769823
219	0x3cbacd09	0.022802847
220	0xbd837fa6	-0.064208314
221	0x3d395165	0.04524364
222	0xbd15c5dc	-0.036565647
223	0x3cb098d7	0.021557255
224	0x3d2095c8	0.039205343
225	0xbdd7c3d1	-0.10535396
226	0xbdfad135	-0.12246934
227	0xba005d36	-0.0004896702
228	0xbd197aa5	-0.03747048
229	0xbd9b7497	-0.07590597
230	0xbcaf6f66	-0.021415424
231	0x3dd28826	0.102798745
232	0xbd3fb03b	-0.046798926
233	0xbdc6be4e	-0.097042665
234	0xbe040ce2	-0.1289554
235	0x3d72d8d0	0.0592888
236	0xbde74b0b	-0.1129361
237	0xbd93b9c5	-0.07213167
238	0x3dc131bc	0.09433314
239	0xbdb30cf4	-0.08742705
240	0x3db2bc54	0.08727327
241	0x3df675ce	0.12034188
242	0xbdbd8f9b	-0.09255906
243	0xbde18f49	-0.110136576
244	0x3d89c240	0.06726503
245	0xbbd1cc88	-0.006402556
246	0xbd8741a8	-0.0660432
247	0xbcd83d1e	-0.02639633
248	0x3dc21e54	0.09478441
249	0xbd776ca9	-0.06040636
250	0xbdddb06d	-0.10824666
251	0xbdb3f2b7	-0.087865286
252	0x3d75de8a	0.060026683
253	0x3dc05918	0.09391993
254	0xbda854ce	-0.082193
255	0xbdb1eab7	-0.086873464

fc1.bias f4 [128]
0	0xbc54ae0f	-0.012980952
1	0xbbfb8127	-0.0076753083
2	0xbbd1fd20	-0.0064083487
3	0xbb882087	-0.004154268
4	0xbb23e703	-0.002500952
5	0xbc093640	-0.008374751
6	0xbc159e4d	-0.00913198
7	0x3bef9c57	0.0073123383
8	0xbc0b9f22	-0.008521827
9	0xbc17f324	-0.009274278
10	0xbc12d462	-0.008961769
11	0xbc877930	-0.016537279
12	0xbc2ae0db	-0.010429586
13	0xbc51a8f3	-0.012796628
14	0x3b0d6f5e	0.0021581273
15	0x3c3f1396	0.0116623845
16	0x3bda3b36	0.0066598905
17	0xbc1941d2	-0.009354072
18	0x3bf2ffdd	0.007415755
19	0xbcaaf909	-0.020870702
20	0x3c9a4b26	0.018834662
21	0x3b06d886	0.0020575835
22	0xbbaea8c1	-0.0053301756
23	0xbc0a843d	-0.00845438
24	0xbbe97aff	-0.007125258
25	0xbc06a7f5	-0.008218755
26	0xbc8c81ff	-0.01715183
27	0xbc14da8f	-0.009085312
28	0x3b76adbd	0.0037640177
29	0xbb9f00e0	-0.004852399
30	0xbb32abbf	-0.0027263013
31	0xbc1edb3d	-0.009695825
32	0xbc84d3ae	-0.016214218
33	0xbc18eb18	-0.0093333945
34	0xbbf98920	-0.0076152235
35	0xbc1b4c8e	-0.009478701
36	0xbc2339f1	-0.009962545
37	0xbbed1cf2	-0.0072361166
38	0xbbfd3a67	-0.0077279094
39	0x3c383f0a	0.011245498
40	0xbc0fba22	-0.008772405
41	0xbbaec92d	-0.0053340406
42	0xbc10d9ed	-0.00884102
43	0xbb352a72	-0.0027643708
44	0x3b7ca053	0.003854771
45	0xbc0743f5	-0.008255948
46	0xbc174a73	-0.009234059
47	0xbc9189b9	-0.017765867
48	0x39e40e32	0.00043498125
49	0x3b89497b	0.0041896678
50	0xbc38eb5f	-0.011286586
51	0xbb600239	-0.0034181012
52	0xbc7860bc	-0.015159782
53	0xbc0376ab	-0.008023898
54	0x3bf56f67	0.007490087
55	0x3c82c1aa	0.015961487
56	0xbbdabf4b	-0.006675636
57	0xbc13f0fe	-0.009029625
58	0xbc03dbfd	-0.008048055
59	0xbbd145a7	-0.006386477
60	0xbc00df7f	-0.007865786
61	0xbbbe5edd	-0.0058096484
62	0xbc1f740a	-0.009732256
63	0xbb3b43f2	-0.0028574434
64	0xbc3997ec	-0.011327725
65	0xbc1078e5	-0.008817886
66	0xbc069c29	-0.008215942
67	0xbc15879c	-0.00912657
68	0xbbecb14d	-0.0072232843
69	0xbc055ff1	-0.00814055
70	0xbc19a85c	-0.009378519
71	0xbb8129a3	-0.003941731
72	0xbb5a7de9	-0.0033339208
73	0xbc36b455	-0.011151393
74	0xbc1586c7	-0.009126372
75	0xbc02bf42	-0.00798017
76	0xbc62ea43	-0.013849798
77	0xbc150835	-0.009096195
78	0xbae8c546	-0.0017758987
79	0xb955de83	-0.00020396155
80	0xbc14edf7	-0.009089938
81	0x3c47ded7	0.012199125
82	0xbc110234	-0.008850623
83	0xbbd251dd	-0.0064184503
84	0xbc08fca5	-0.008361016
85	0xbb3ca834	-0.002878678
86	0xbc77817a	-0.015106553
87	0xbc0155ad	-0.007893962
88	0xbc177936	-0.0092452075
89	0xbc5cde56	-0.013480743
90	0xbc115c22	-0.008872064
91	0xbbf8ae32	-0.007589125
92	0xbbf0a18f	-0.007343478
93	0xbbbb523b	-0.0057165897
94	0xbb9f9d25	-0.004871028
95	0x3b6a4c52	0.0035751057
96	0xbbfc6736	-0.0077027334
97	0x3afc001b	0.0019226106
98	0x3c9cc509	0.019136922
99	0xbc507132	-0.0127223
100	0xbc310a29	-0.010805645
101	0xbc44eea5	-0.012019788
102	0xbc7ff779	-0.015622967
103	0x3bffb5c1	0.007803649
104	0x3a7bbcb8	0.00096030114
105	0x3a812fd2	0.000985617
106	0xbc015e87	-0.007896072
107	0xbbb7ce0f	-0.005609281
108	0xbc3793bd	-0.011204657
109	0xbc0aab50	-0.008463696
110	0x3d163f38	0.036681384
111	0xbc056b82	-0.008143308
112	0x3c677ba4	0.014128599
113	0xbc3527d7	-0.011056862
114	0xbb390561	-0.0028231966
115	0xbc80d439	-0.015726196
116	0xbc022934	-0.007944394
117	0xbc4531ef	-0.012035831
118	0xba86bb54	-0.0010279217
119	0x3ba94231	0.0051653613
120	0xbbf95925	-0.007609504
121	0xbc145490	-0.009053364
122	0xbbe76004	-0.0070610065
123	0xbc0c894b	-0.008577655
124	0xbc10f870	-0.008848295
125	0xbc0dfaed	-0.008665782
126	0xbbf4a34e	-0.0074657565
127	0xbb902aef	-0.0043996493

fc2.weight f4 [20, 128, 1, 1]
0	0x3bfa5690	0.0076397136
1	0x3b6a04d2	0.003570844
2	0xbc358d1b	-0.011081005
3	0xbc6113c2	-0.013737621
4	0xbc98a9ba	-0.01863562
5	0xbc75412e	-0.014969153
6	0xbaee4ae3	-0.0018180277
7	0xbc575adf	-0.013144224
8	0x3b9498da	0.004534823
9	0x3b9d2b7d	0.004796444
10	0x3bc43460	0.005987689
11	0xbc0b3a15	-0.008497735
12	0xbb3d8a9f	-0.0028921736
13	0xbab49345	-0.00137768
14	0xbc3a13dc	-0.011357274
15	0x3a0e44f2	0.0005427144
16	0x3b4a7b87	0.0030896382
17	0xbb82d1b5	-0.003992284
18	0xbc937f34	-0.018004991
19	0xbbe6ade7	-0.0070397737
20	0xbcb5a50f	-0.022173433
21	0xbc389ef9	-0.011268371
22	0xbc4e58fc	-0.012594458
23	0x3b479877	0.0030455866
24	0x3b9925e6	0.0046737073
25	0x3b1a11d8	0.002350917
26	0x3b7d8578	0.003868429
27	0x3b704717	0.0036663467
28	0xbc2a0bf8	-0.01037883
29	0xba8634dd	-0.0010239143
30	0xbac4045d	-0.0014954914
31	0x3ba093fa	0.0049004527
32	0x3bca3440	0.0061707795
33	0x3b916407	0.004436973
34	0x3b91b394	0.004446456
35	0x3b8383f7	0.004013534
36	0x3b20b6f5	0.0024523113
37	0x3b949e05	0.004535439
38	0x3ad7013d	0.0016403567
39	0xbb1c69cd	-0.0023866773
40	0xbab410fa	-0.001373797
41	0x3b63828d	0.0034715266
42	0x3b8d87a0	0.0043191463
43	0xbcb6353a	-0.022242177
44	0xbbc591ac	-0.0060293283
45	0x3a9a2ecd	0.0011763215
46	0x3bab69f2	0.0052311355
47	0x3aa27769	0.0012395206
48	0x3b55320d	0.0032531053
49	0xbc55ae1c	-0.013041999
50	0xbbf04621	-0.0073325788
51	0x3b83f7fa	0.004027364
52	0x3ba1736e	0.0049270904
53	0x3ba1b4d2	0.0049348855
54	0xbb94d266	-0.004541683
55	0xbc187abd	-0.009306607
56	0x3b9eac11	0.0048422893
57	0x3b6a8e26	0.0035790293
58	0x3b0c1b68	0.002137864
59	0x3b6d2635	0.0036186103
60	0x3b98475e	0.0046471795
61	0xbc3d1fa9	-0.011543193
62	0x3b925ec4	0.0044668633
63	0xbc35aeb4	-0.011089016
64	0xbbbad716	-0.00570191
65	0x3b0997c5	0.0020995003
66	0x3b1df7a0	0.0024103895
67	0x3bb696cd	0.005572176
68	0x3b79842c	0.0038073165
69	0x3ba32003	0.0049781813
70	0x3bad23f1	0.0052838256
71	0x3b8cb055	0.0042934814
72	0xbc749127	-0.014927185
73	0x3ba40489	0.0050054234
74	0xbc2a60a2	-0.010399016
75	0x3bc71a18	0.0060761087
76	0xbbd421d7	-0.0064737606
77	0x3b10a1bd	0.002206906
78	0xbc579b8f	-0.013159647
79	0xbc17335a	-0.009228552
80	0x3ba90bca	0.005158876
81	0x3aa62735	0.001267648
82	0x3ba010c0	0.0048848093
83	0x3a5b14d2	0.00083572895
84	0x3b6ec7dd	0.0036435046
85	0x39f22e40	0.00046192296
86	0xbb104152	-0.002201159
87	0x3b80cca0	0.003930643
88	0x3b816523	0.003948824
89	0xbc4bfeba	-0.012450868
90	0xbb04780d	-0.0020213157
91	0x3bf06674	0.007336432
92	0x3bac4ede	0.005258425
93	0xbc53ea59	-0.012934291
94	0xbc62dbce	-0.013846351
95	0x3a7d31cc	0.00096586044
96	0x3baf0723	0.005341427
97	0xbc44c503	-0.012009862
98	0x397f6c20	0.00024358975
99	0xbb9e0ed1	-0.0048235436
100	0x3b28542c	0.0025684936
101	0x3bc565b7	0.0060240882
102	0x3b948dd6	0.0045335097
103	0x3bae2abf	0.0053151543
104	0xbc21a636	-0.009866288
105	0xbc683f33	-0.014175224
106	0x3c0db9a9	0.008650222
107	0x3b04ddb7	0.0020273754
108	0x3bcf90e9	0.0063344133
109	0x3bab69e1	0.0052311276
110	0xbd757fc3	-0.059936296
111	0x3b4b9f3b	0.003107025
112	0xbc442de6	-0.011973834
113	0x3c024645	0.007951324
114	0xbc3d1c2b	-0.01154236
115	0xba4cd598	-0.00078138104
116	0x3b1339a8	0.0022464786
117	0x3babf498	0.0052476637
118	0xbc0b1d38	-0.008490853
119	0xbc197ce7	-0.009368158
120	0x3ba76571	0.0051085283
121	0x3b7f4eb4	0.0038956823
122	0xbc1e0a12	-0.009645956
123	0x3b62dc7f	0.003461629
124	0x3b99755e	0.0046831807
125	0x3b5ce328	0.0033704732
126	0x3ac279f6	0.0014837373
127	0x3b3a368b	0.0028413858
128	0xbd44b37e	-0.04802274
129	0x3a6e8c72	0.00090999075
130	0xbb9858ad	-0.004649243
131	0xbad2b2c2	-0.0016075002
132	0x3c031f08	0.008003004
133	0x3ba49d92	0.0050236667
134	0x37d1abe9	2.4994793e-05
135	0xbba8d316	-0.0051521165
136	0x3b8ba5df	0.0042617167
137	0x3baae6d1	0.0052155037
138	0xbb12b563	-0.0022385947
139	0xbc14b4a2	-0.009076269
140	0x3acc5084	0.001558796
141	0xbbfbecf7	-0.0076881605
142	0xbba20982	-0.004944981
143	0x3c91e37a	0.017808665
144	0xbb97fb73	-0.0046381294
145	0x3bbbc38b	0.0057300976
146	0x3bc668b9	0.0060549644
147	0xbbb1ea7e	-0.005429565
148	0x3d68dc11	0.056850497
149	0x3ba54be5	0.0050444477
150	0xbd00e248	-0.0314658
151	0xbbbd20da	-0.0057717385
152	0x3c494f51	0.012286977
153	0x3c19650b	0.009362469
154	0xbbd9ac40	-0.0066428483
155	0x3c81d12b	0.01584681
156	0xbc05d09f	-0.008167415
157	0xbbcc445c	-0.006233735
158	0xbcee6d3f	-0.029104827
159	0x3aef186b	0.001824153
160	0x3bffb177	0.007803138
161	0x3b4b31f2	0.0031005112
162	0x3b1b31b3	0.0023680746
163	0x3c8a6b08	0.01689674
164	0x3b72b395	0.0037033309
165	0x3a2ec40c	0.00066667865
166	0xbbd87d50	-0.0066067353
167	0x3ba550f8	0.0050450526
168	0xba5bcb74	-0.0008384504
169	0x3adcd8ac	0.0016849241
170	0xbaffcfe9	-0.0019516918
171	0xbd5f6006	-0.054534934
172	0x3be7addf	0.0070702876
173	0xbb8d4591	-0.0043112715
174	0x3acb1683	0.001549438
175	0x3b3469ed	0.0027528957
176	0x3c62e649	0.01384885
177	0x3c4eca7b	0.012621517
178	0xbba56bb0	-0.0050482377
179	0x3bcaef5d	0.006193085
180	0xbb022360	-0.001985751
181	0x3b1adc0e	0.0023629698
182	0x3c48a462	0.012246223
183	0xbcd56332	-0.026048277
184	0x3b9d2af0	0.0047963783
185	0xbb9c8fde	-0.0047778925
186	0xbbfac677	-0.0076530534
187	0x3c2b7f04	0.010467295
188	0x3b8c9071	0.0042896797
189	0xbbe12910	-0.00687135
190	0xb8eafd59	-0.00011205179
191	0xbbddc938	-0.006768372
192	0x3c488878	0.012239568
193	0x3c147684	0.009061459
194	0xbba91f5f	-0.0051612104
195	0x3aa3235a	0.0012446449
196	0x3b96ce0f	0.004602201
197	0xbbb0289b	-0.0053759343
198	0xb9ba118e	-0.00035489764
199	0x3c789bcc	0.015173864
200	0xbad69dd7	-0.0016373944
201	0xbb8190e9	-0.003954042
202	0xbc35aaf4	-0.011088122
203	0x3a298c11	0.000646771
204	0x3b28d95c	0.0025764322
205	0xbc36ddb7	-0.011161259
206	0x3cd75e70	0.026290148
207	0xbb8d0d23	-0.0043045445
208	0x3b175a36	0.0023094541
209	0x3c5f3463	0.01362333
210	0xbbb2df49	-0.0054587466
211	0x3cf6e469	0.030138211
212	0x3c2f138f	0.0106858155
213	0x3c0407df	0.008058517
214	0xbbab22b9	-0.005222645
215	0x3bcfdc12	0.006343373
216	0x39c19b6b	0.00036927624
217	0xbba58445	-0.005051168
218	0x39f859cf	0.0004736916
219	0xbaeeadd8	-0.0018209768
220	0x3bb0bedc	0.005393846
221	0xbb3bb74c	-0.002864319
222	0x3c814ace	0.01578274
223	0xbbe17bc5	-0.0068812096
224	0xbaa8cd3e	-0.001287855
225	0xbc013805	-0.007886891
226	0x3b911831	0.0044279327
227	0xbbcf5f4d	-0.0063284994
228	0xbc3f0220	-0.0116582215
229	0xb95630a3	-0.00020426749
230	0x3bd6c4c6	0.006554219
231	0x3d0eb8f6	0.03484436
232	0xbc8668c3	-0.016407376
233	0xbc372e87	-0.011180527
234	0xbad4cfa7	-0.0016236202
235	0xba2c8867	-0.0006581605
236	0x3ac0f144	0.001472034
237	0xbbc6be92	-0.006065198
238	0xbd84f60b	-0.064922415
239	0x3b4665b4	0.0030273022
240	0xbc9d828b	-0.019227287
241	0xbb080bed	-0.0020759061
242	0xbb9a1dfe	-0.0047032824
243	0xba5b890c	-0.00083746086
244	0x3b1fa146	0.00243576
245	0x3b3630dc	0.0027800119
246	0xbc191cb1	-0.0093452195
247	0xbc763edc	-0.015029635
248	0xb9e85ee5	-0.0004432119
249	0x3a133cf6	0.0005616689
250	0xbb00e3f2	-0.0019667116
251	0x3beab7d7	0.0071630287
252	0xbb985006	-0.0046482114
253	0x3bd3734b	0.006452953
254	0x3c3a475b	0.0113695515
255	0x3c4b4e99	0.012408876

fc2.bias f4 [20]
0	0x3b55d290	0.0032626726
1	0xbaac14ce	-0.0013128759
2	0x39dc1148	0.00041974545
3	0x39830b96	0.000249949
4	0x39696d78	0.00022261392
5	0x39f35a4a	0.00046415842
6	0x3a0427e3	0.0005041344
7	0x399e25fb	0.00030164406
8	0xbb0afa9a	-0.00212065
9	0xba39481d	-0.00070679357
10	0x3ae3b46e	0.0017372498
11	0x3903e2fe	0.00012577695
12	0xbaebf322	-0.0018001536
13	0xbaf6434b	-0.0018788365
14	0xbabdb9d4	-0.0014474937
15	0xba15a570	-0.0005708551
16	0xbabaa653	-0.0014240242
17	0x3a67a374	0.0008836307
18	0x39727e5f	0.00023125995
19	0xba6ff97f	-0.0009154304

layernorm.weight f4 [20]
0	0x3f8d5f94	1.1044793
1	0x3f8efdd1	1.1171209
2	0x3f964f16	1.1742885
3	0x3f80a99f	1.0051764
4	0x3f80d41d	1.0064732
5	0x3f81342d	1.0094048
6	0x3f826999	1.0188476
7	0x3f8155cf	1.0104312
8	0x3f86ccd7	1.0531262
9	0x3f80bdce	1.0057924
10	0x3f8296a0	1.0202217
11	0x3f7c3b09	0.9852758
12	0x3f7cbea4	0.98728395
13	0x3f7c9e7b	0.9867932
14	0x3f7c60d0	0.98585224
15	0x3f7bd0d3	0.98365515
16	0x3f7b1fcf	0.9809541
17	0x3f7ab9de	0.9793986
18	0x3f7bb3ab	0.98321027
19	0x3f7c2eb8	0.9850879

layernorm.bias f4 [20]
0	0x3d68acf7	0.056805577
1	0x3c1b1f35	0.00946789
2	0x3c36f40a	0.011166582
3	0xbd043863	-0.032280337
4	0xbcb50085	-0.022094974
5	0xbcda5101	-0.026649954
6	0xbd33c9e4	-0.04389371
7	0xbcda9c37	-0.026685817
8	0xbbe7fe10	-0.007079847
9	0xbca59dc9	-0.02021684
10	0xbd306f5f	-0.04307496
11	0xb9ac45d3	-0.0003285842
12	0xba5ce66e	-0.00084266707
13	0xba57035c	-0.00082020997
14	0xba94b144	-0.0011344333
15	0xb983916f	-0.00025094624
16	0xb8fa38c6	-0.00011931504
17	0xba824c18	-0.0009940891
18	0x387d65e9	6.041481e-05
19	0xb9d5c794	-0.00040775223
