nca-code/new_experiments/runs/parallel_nca_250618_130142/checkpoints/parallel_nca_model_250618_130142.pth (torch, 208791 bytes, 4 tensors)

fc1.weight f4 [256, 180, 1, 1]
-0.00039659685 0.05644112 0.013342687 -0.011468432 -0.085453875 0.037313133 0.005250287 0.012954685
-0.0036934498 -0.010602254 -1.3218087e-06 -0.015083789 0.009634136 0.013318272 0.0078921905 -0.014715327
0.010697762 -0.0056844135 0.00029811403 -0.002488898 -0.009880625 -0.05525317 0.0005855685 -0.007932671
-0.020038487 0.00045152937 -0.0056083966 -0.0026571034 -0.00045845655 0.00078275404 -0.0004971377 -0.0010153024
-0.0019714048 -0.0052955784 -0.00253108 -0.003467747 -0.00019092923 0.0016324889 0.0027350574 -0.001028109
0.0007695932 -0.016171092 0.0037290705 -0.014155592 0.00075855723 0.090967886 -0.005507317 0.0034418846
-0.005904007 0.003469084 -0.005904052 -0.013341303 -0.0035662486 0.005051722 0.01180761 -0.0065279505
0.016549565 0.008691108 -0.013117071 0.0026698213 -0.008427076 0.040982902 -0.003375475 -0.005326992
0.0314649 -0.0017398942 -0.004330986 -0.0041264403 0.0033009707 0.002719766 -0.0027973715 -0.0025195503
-0.0041288924 -0.004161862 -0.004702173 -0.0043894406 0.0026245744 -0.0022623297 -0.0017572127 -0.00283386
-0.036204588 0.04663116 -0.0023715936 0.01704325 0.02305037 0.12694898 0.0058468063 -0.0022550728
0.0068384805 -0.0016311129 0.006814865 0.012928379 0.002096145 -0.0010742721 -0.007289802 0.005217511
-0.008897487 -0.0059834872 0.005346017 -0.006234819 0.042756576 0.026240798 0.0045852894 0.003956153
-0.008575558 0.0039490266 0.005235228 0.004407444 -0.003871402 -0.0066119535 0.0037866873 0.0052750735
0.00662532 0.0057716393 0.0042059068 0.0068636476 -0.0046842345 0.0033224104 0.0031071287 0.005231808
-0.03670421 -0.014863559 -0.012464115 0.044054713 0.056409247 0.07838335 0.013482284 -0.011078963
0.01751604 -0.003384671 0.015042596 0.039572675 0.004271213 -0.011360626 -0.026155153 0.019069755
-0.038018774 -0.015505888 0.025895493 -0.011290548 -0.036272995 -0.056180775 0.008791219 0.017108463
-0.061909325 0.0037645793 0.0076802433 0.014638348 -0.005664709 -0.01484295 0.007866397 0.005570438
0.015432703 0.008911888 0.011591747 0.009865737 -0.004564702 0.0054975892 0.0029243298 0.0070395903
-0.010755271 -0.055606697 0.0013463319 -0.0163472 0.01711726 0.079698995 -0.008709785 0.007962271
-0.0061005685 0.005507638 -0.006139643 -0.012333371 -0.00144751 0.0025971746 0.015280809 -0.011185193
0.02061634 0.010787395 -0.024704352 0.0012883928 -0.014786081 0.010156619 -0.0028626565 -0.0006864694
0.02317663 0.0002106769 -0.0037112678 -0.0035897614 -0.0016898336 0.0040970277 -0.0020889607 -0.00088761223
-0.0038710237 -0.0037678925 0.0014214927 0.0031636746 0.0015731473 0.004113239 -0.0041370606 0.0036076044
-0.001207932 0.014546793 0.0014773805 0.0031981752 -0.016028717 0.00041520118 0.0018830865 0.0019983463
-0.0011439612 -0.0021880062 0.0013621056 0.0012007729 0.0025004845 0.0018437536 0.002286994 0.0016093993
-0.00078958616 0.0006648913 0.00074598374 0.0014142056 -0.01232183 -0.034282517 1.4050405e-05 0.00227397
0.05333325 0.0056164046 0.0010168065 0.0004679758 0.0015478218 -0.00018354927 0.0012350249 0.002405868
0.0009957965 0.00053928443 -0.001695117 4.835878e-06 -0.0021910528 -0.0014470379 0.00017746697 -0.0013602866
0.021237116 -0.021219462 0.0012958793 0.0015665605 0.0105853835 0.000350741 0.00082586106 0.0010749811
-0.00067416823 -0.0008479265 0.001099313 0.0007889101 0.0019317853 0.0014702025 0.0012097268 0.0009731864
00000000: 54ee cfb9 ce2e 673d 499b 5a3c 17e6 3bbc
00000010: 7102 afbd a8d5 183d 990a ac3b e33f 543c
00000020: ce0d 72bb 14b5 2dbc 0069 b1b5 ff21 77bc
00000030: 7fd8 1d3c e234 5a3c 3f4e 013c 8e18 71bc
00000040: aa45 2f3c 5144 babb 304c 9c39 c81c 23bb
00000050: 58e2 21bc 2651 62bd d680 193a 09f8 01bc
00000060: c127 a4bc 3fbb ec39 a4c6 b7bb cc22 2ebb
00000070: ff5c f0b9 bc31 4d3a 5952 02ba e513 85ba
00000080: af32 01bb 8886 adbb 7ae0 25bb 2443 63bb
00000090: 2d34 48b9 3df9 d53a a63e 333b 9dc1 86ba
000000a0: 87be 493a 3d79 84bc 6c63 743b dbec 67bc
000000b0: ead9 463a 5f4d ba3d b976 b4bb 3e91 613b
000000c0: 6676 c1bb 9259 633b c776 c1bb 7b95 5abc
000000d0: b9b7 69bb ea88 a53b b574 413c 6be8 d5bb
000000e0: f492 873c 2665 0e3c fce8 56bc 2bf8 2e3b
000000f0: b811 0abc b0dd 273d 1337 5dbb 0c8e aebb
00000100: 57e1 003d 290d e4ba f2ea 8dbb 1737 87bb
00000110: 1955 583b 1a3e 323b 1b54 37bb 0a1f 25bb
00000120: a94b 87bb 3b60 88bb b014 9abb 4cd5 8fbb
00000130: 0d01 2c3b 9843 14bb 4652 e6ba 48b8 39bb
00000140: 434b 14bd 5100 3f3d bd6c 1bbb 499e 8b3c
00000150: 21d4 bc3c eafe 013e 9196 bf3b d8c9 13bb
00000160: 5515 e03b 11cb d5ba 3b4f df3b 8dd1 533c
00000170: 7a5f 093b 97ce 8cba 4bdf eebb a8f7 aa3b
00000180: c4c6 11bc 2111 c4bb a42d af3b 744d ccbb
00000190: 8521 2f3d f1f6 d63c 3240 963b 9ea2 813b
000001a0: 7f80 0cbc d666 813b 478c ab3b 526c 903b
000001b0: 59b7 7dbb 16a9 d8bb 122a 783b 86da ac3b
000001c0: 3619 d93b 0520 bd3b b4d1 893b 73e8 e03b
000001d0: 357e 99bb ccbc 593b f8a0 4b3b 966f ab3b
000001e0: 2757 16bd 4986 73bc 4a36 4cbc b772 343d
000001f0: 620d 673d 7387 a03d cce4 5c3c 8a84 35bc
00000200: cc7d 8f3c 5bd1 5dbb 3875 763c f516 223d
00000210: 88f5 8b3b eb21 3abc 5543 d6bc 2d38 9c3c
00000220: 93b9 1bbd 680c 7ebc c922 d43c fefb 38bc
00000230: fe92 14bd d01d 66bd 0c09 103c 0c27 8c3c
00000240: a294 7dbd 29b7 763b 8daa fb3b aed5 6f3c
00000250: 069f b9bb d82f 73bc 0fe2 003c 3988 b63b
00000260: 73d9 7c3c 2b03 123c 50eb 3d3c e6a3 213c
00000270: 7f93 95bb 1f25 b43b 1da6 3f3b 5dac e63b
00000280: e036 30bc d9c3 63bd 6777 b03a 90ea 85bc
00000290: 7f39 8c3c 3a39 a33d 7cb3 0ebc 2f74 023c
000002a0: 47e7 c7bb 6b79 b43b 0f2f c9bb e811 4abc
000002b0: 60ba bdba 5c35 2a3b 5c5c 7a3c 1a42 37bc
000002c0: 99e3 a83c 9dbd 303c c860 cabc 4adf a83a
000002d0: 5241 72bc f367 263c 689b 3bbb 2ef4 33ba
000002e0: eadc bd3c 26e9 5c39 be38 73bb 3442 6bbb
000002f0: 687d ddba 5c40 863b f2e6 08bb a6ae 68ba
00000300: 00b1 7dbb bfee 76bb 6151 ba3a a755 4f3b
00000310: 1032 ce3a 59c8 863b 2e90 87bb 8f6d 6c3b
00000320: 7953 9eba ac55 6e3c aaa4 c13a 7a98 513b
00000330: a84e 83bc 5caf d939 e6d1 f63a b0f6 023b
00000340: f8f0 95ba a764 0fbb ae88 b23a 4163 9d3a
00000350: 2bdf 233b 1baa f13a 64e1 153b 7bf2 d23a
00000360: 3bfc 4eba 1a4c 2e3a 1f8e 433a de5c b93a
00000370: 80e1 49bc d36b 0cbd 08ba 6b37 e306 153b
00000380: f773 5a3d d109 b83b 5d46 853a a65a f539
00000390: 48e0 ca3a 2277 40b9 8fe0 a13a c4ab 1d3b
000003a0: 6385 823a c45e 0d3a b02e deba e043 a236
000003b0: c497 0fbb 89aa bdba 6d16 3a39 a54b b2ba
000003c0: 76f9 ad3c 70d4 adbc 7eda a93a 0c55 cd3a
000003d0: 516e 2d3c a9e3 b739 997e 583a 61e6 8c3a
000003e0: aaba 30ba 6247 5eba d316 903a dcce 4e3a
000003f0: f533 fd3a cfb3 c03a b28f 9e3a 6f1d 7f3a

fc1.bias f4 [256]
-0.01909154 -0.019123795 -0.012911212 -0.027432887 -0.024993604 -0.02034253 -0.016986044 -0.018252837
-0.025476117 -0.016184058 -0.00072478433 -0.01252977 -0.017360674 -0.022466531 -0.009496477 -0.019283481
-0.019149477 -0.019819574 -0.0045641107 -0.016246548 -0.012704111 -0.016844701 -0.02526471 -0.021638041
-0.02129005 -0.014456004 -0.0077685164 -0.008530013 -0.014269204 -0.012741554 -0.026321737 -0.011796638
-0.021692894 -0.023351217 -0.018911712 -0.016474158 -0.013924107 0.025297098 -0.019884493 -0.009257086
-0.023239888 -0.014074679 -0.01988864 -0.024869476 -0.0069765714 -0.022042075 -0.0161172 -0.02918531
-0.016900627 -0.013672281 -0.014614523 -0.015942648 -0.011363938 -0.0002560975 -0.014602509 -0.011436811
-0.019076291 -0.022531541 -0.011612042 -0.008905323 -0.015900386 -0.012763654 -0.019522391 -0.024236195
-0.021119662 -0.011958576 -0.004708587 -0.013269591 -0.0070571415 -0.01859822 -0.011498727 -0.01455034
-0.016227921 -0.01489992 -0.016111352 -0.019586321 -0.017172942 -0.014784772 -0.013440518 -0.005767198
-0.014302144 -0.009919498 -0.023777183 -0.012078969 -0.02325614 -0.021033684 -0.007963643 -0.011885815
-0.021239186 0.0042621032 -0.01732658 -0.022825776 -0.017716737 -0.011311418 -0.012299516 -0.022130081
-0.008353935 -0.02774633 0.013016821 -0.014085411 -0.01032392 -0.013631555 -0.0119166495 -0.023557492
-0.014085763 -0.011436976 -0.023478638 -0.020759553 -0.02667508 0.009079933 -0.016075227 -0.023692943
-0.0154358065 -0.009764702 -0.009910498 -0.0066321697 0.009208872 -0.009684365 -0.022266686 -0.022865027
-0.020738455 -0.012760299 -0.014701597 -0.01290136 -0.012962561 -0.016812207 -0.008729581 -0.015860947
0.0032512452 0.0032553803 -0.0138162 -0.015362306 -0.011287782 -0.017688591 -0.010884423 -0.010816981
-0.013466306 -0.017862614 -0.00782077 -0.0047130533 -0.015538264 0.019350661 -0.0045502437 -0.013603345
0.019786783 -0.019134581 -0.015510699 -0.01138848 -0.0055957655 -0.011847105 -0.013916301 -0.011186288
-0.011150459 -0.0070829894 -0.0066817407 -0.01649705 -0.0073475377 -0.014510101 -0.012522832 0.0031073578
-0.009697482 -0.00795807 -0.014765739 -0.018388499 0.0004164807 -0.001513248 -0.015020968 -0.0083424235
-0.009980569 0.006652984 -0.002125826 -0.013980367 -0.013991105 -0.015861697 -0.011380641 -0.006081417
-0.01405964 -0.013769957 -0.008578101 0.021981826 -0.016048264 -0.013175306 -0.0130935265 -0.018533202
-0.01760216 -0.014828722 -0.0091858655 -0.015977612 -0.020449514 -0.018481132 -0.015064138 -0.008483644
-0.01591076 -0.010867057 -0.017795183 0.014924314 -0.013637835 -0.010564165 -0.012732847 -0.013577215
-0.014832504 -0.007088257 -0.018527986 -0.016905652 -0.00701602 0.004483718 -0.012059036 -0.0017155242
-0.0033509019 -0.012013197 -0.0046596434 -0.0059156064 -0.010062805 -0.012631893 -0.015539373 -0.009675154
-0.011074906 -0.008687229 -0.014168947 -0.012974823 -0.017212875 -0.0066182115 -0.022870492 -0.020062698
-0.014235644 0.006976425 -0.01849963 -0.016326694 0.010487603 -0.0175324 -0.009497985 0.001466015
-0.012581586 -0.007965675 -0.008362694 -0.016613256 -0.023413604 -0.011575866 -0.022825299 -0.005514344
-0.017671173 -0.012294888 -0.018256266 -0.008311073 -0.0077072 -0.002493123 -0.013318085 -0.017925015
-0.00799207 -0.013001924 -0.007658469 -0.014305099 -0.011717167 -0.0017226362 -0.0046490133 -0.00088548317
00000000: dc65 9cbc 81a9 9cbc 8c89 53bc efba e0bc
00000010: 63bf ccbc 61a5 a6bc 5126 8bbc f986 95bc
00000020: 4ab3 d0bc 6e94 84bc 74ff 3dba aa49 4dbc
00000030: f937 8ebc bb0b b8bc 1d97 1bbc 64f8 9dbc
00000040: 5ddf 9cbc a95c a2bc 898e 95bb 7b17 85bc
00000050: e724 50bc e6fd 89bc f0f7 cebc 4342 b1bc
00000060: 7968 aebc e0d8 6cbc 0a8f febb 78c1 0bbc
00000070: 61c9 69bc f3c1 50bc afa0 d7bc b046 41bc
00000080: 4cb5 b1bc 0d4b bfbc bcec 9abc d0f4 86bc
00000090: f021 64bc dc3b cf3c cee4 a2bc 08ab 17bc
000000a0: 9461 bebc 7c99 66bc 80ed a2bc 12bb cbbc
000000b0: b99b e4bb 9591 b4bc 3808 84bc 0816 efbc
000000c0: 2f73 8abc b401 60bc c171 6fbc 289a 82bc
000000d0: d02f 3abc d344 86b9 5d3f 6fbc 7661 3bbc
000000e0: e245 9cbc 1194 b8bc 6f40 3ebc a2e7 11bc
000000f0: 8741 82bc a51e 51bc 6ced 9fbc fc8a c6bc
00000100: 2403 adbc e7ed 43bc 7e4a 9abb b368 59bc
00000110: 983f e7bb 4b5b 98bc 2865 3cbc 8d64 6ebc
00000120: 6bf0 84bc cb1e 74bc f4fb 83bc 7e73 a0bc
00000130: 45ae 8cbc d43b 72bc 9e35 5cbc c3fa bcbb
00000140: 8a53 6abc 6485 22bc 5ec8 c2bc dee6 45bc
00000150: a983 bebc d54e acbc f179 02bc b9bc 42bc
00000160: cdfd adbc 1da9 8b3b 79f0 8dbc 1ffd babc
00000170: b122 91bc 8753 39bc e983 49bc 254a b5bc
00000180: f1de 08bc 454c e3bc 8144 553c 7fc6 66bc
00000190: a925 29bc e356 5fbc 0d3e 43bc a4fb c0bc
000001a0: f9c7 66bc 2762 3bbc 4656 c0bc f00f aabc
000001b0: b385 dabc 00c4 143c 32b0 83bc b417 c2bc
000001c0: 77e6 7cbc 21fc 1fbc a45f 22bc ac52 d9bb
000001d0: cfe0 163c 2cab 1ebc a068 b6bc 704f bbbc
000001e0: b1e3 a9bc 9310 51bc f8de 70bc 3a60 53bc
000001f0: ec60 54bc c1b9 89bc 8406 0fbc d1ee 81bc
00000200: d812 553b 3858 553b 585d 62bc 2eb2 7bbc
00000210: 64f0 38bc aae7 90bc 9454 32bc b539 31bc
00000220: c8a1 5cbc 9e54 92bc b022 00bc f56f 9abb
00000230: 3494 7ebc 4785 9e3c 361a 95bb 90e0 5ebc
00000240: e417 a23c 20c0 9cbc 9620 7ebc bf96 3abc
00000250: af5c b7bb 5c1a 42bc 3201 64bc b146 37bc
00000260: 6ab0 36bc 6c18 e8bb 81f2 dabb d224 87bc
00000270: 9dc3 f0bb c6bb 6dbc 902c 4dbc d0a4 4b3b
00000280: 30e2 1ebc 9162 02bc 00ec 71bc 7aa3 96bc
00000290: 185b da39 2d58 c6ba 821a 76bc a9ae 08bc
000002a0: 8a85 23bc 4601 da3b 7151 0bbb e90d 65bc
000002b0: f33a 65bc 64f0 81bc de75 3abc a046 c7bb
000002c0: 675a 66bc 639b 61bc 2a8b 0cbc 3b13 b43c
000002d0: a677 83bc 3ddd 57bc 3b86 56bc f1d2 97bc
000002e0: 6832 90bc 2bf4 72bc 5080 16bc 7be3 82bc
000002f0: bd85 a7bc be65 97bc 93cf 76bc fbfe 0abc
00000300: 4857 82bc be0b 32bc 34c7 91bc 1c85 743c
00000310: 3a71 5fbc 5215 2dbc 6e9d 50bc f872 5ebc
00000320: 0804 73bc 9c44 e8bb 01c8 97bc b97d 8abc
00000330: a4e6 e5bb 27ec 923b 4393 45bc 71db e0ba
00000340: ce9a 5bbb 00d3 44bc ecaf 98bb b4d7 c1bb
00000350: 77de 24bc 00f6 4ebc db98 7ebc 8a84 1ebc
00000360: 8673 35bc e154 0ebc df24 68bc 5a94 54bc
00000370: 0402 8dbc 95dd d8bb e65a bbbc 875a a4bc
00000380: 9e3c 69bc 7f9a e43b 898c 97bc 8fbf 85bc
00000390: 32d4 2b3c 1ca0 8fbc 709d 1bbc 4d27 c03a
000003a0: ff22 4ebc 7682 02bc ae03 09bc 8618 88bc
000003b0: e3cd bfbc b3a8 3dbc 1ffc babc acb1 b4bb
000003c0: 23c3 90bc 7f70 49bc 2a8e 95bc 2b2b 08bc
000003d0: ae8c fcbb aa63 23bb 1934 5abc 7bd7 92bc
000003e0: 2cf1 02bc 0606 55bc e5f3 fabb ef5f 6abc
000003f0: 5cf9 3fbc 14ca e1ba c056 98bb c51f 68ba

fc2.weight f4 [40, 128, 1, 1]
-0.008726069 -0.0027519206 -0.0019143387 0.0008204267 0.0004756097 -0.00063077116 0.0011058346 0.006002742
0.00171319 0.0038479995 -0.005630795 -0.0003220244 -0.0067217415 0.0009325923 0.009227691 -0.0003946867
0.0019157531 0.0016701357 -0.012072132 0.0012474116 0.0014054864 0.0041613383 0.004654405 0.00012458944
0.0002759368 0.023446143 -9.5623494e-05 0.016635861 0.0051491167 -4.4451976e-05 0.00038420432 -0.008618405
0.005343191 0.012327337 0.002588882 -0.000627743 0.002840123 0.043169145 0.0011489786 0.01678454
-0.0014448855 0.0040941956 -0.0014393484 -0.000377105 -0.001023781 0.0022047537 -0.00054925657 -0.012154071
0.00038103005 0.0009150261 0.0049330792 0.0017657232 -0.008360254 0.0019940874 -6.6264474e-05 -0.0027883288
0.0013521275 -0.006434376 -0.0017562561 0.005241402 -0.00054022064 -0.0019938452 0.0015929115 -0.0013751624
-0.0010455038 -4.8855152e-05 -0.0058791153 -0.00023126298 0.0015712195 -0.001036452 0.0038285968 -0.0026865273
0.0013764704 0.0021290742 0.0056024794 0.002437755 0.0024821393 0.020817995 0.0045454507 -0.0042015044
-0.0009143079 0.008177173 0.00032165358 0.0012959867 0.0015659326 -0.00391627 -0.0008528885 0.0049847877
-0.0018796532 0.021417402 -0.00021665388 -0.0024056074 0.00014002346 -0.0018284806 -0.004826568 -0.00067015685
-0.0024814287 -0.0037250905 0.012978873 0.0046906937 -0.0009630371 -0.004953796 0.0019650275 -0.0031356034
0.0021918844 0.00040901123 0.0003671744 -0.0016356092 -0.0006912967 0.012399687 0.0017400122 -0.004339892
0.0007558519 0.0038672735 -0.0044640354 -0.0016186209 -0.0059494325 -0.0019530567 0.0031486887 -0.00035874275
-0.0014068703 -0.00041186917 0.005350204 0.005193855 -0.0032149467 0.0032608341 -0.004971761 1.4299399e-05
-0.023884695 0.0029770238 -0.00024520536 -0.00034263553 -0.0013567209 -0.00048836827 -0.0007028952 -0.00034222816
-0.003383332 -0.009708218 -0.013224591 0.0023042762 0.0030801145 0.0016078008 -0.0002964593 0.0017440324
-0.001691626 -0.0020592725 -0.041665804 0.002741143 -0.0029874295 0.011955022 0.024007712 2.9715004e-05
-0.0017419532 -0.0023396476 0.0061279503 0.015126345 -0.0040354035 0.0026878628 0.002200568 -0.0019111325
-0.012158819 -0.00846492 -0.0049563143 -0.0005599205 0.0036953678 0.030788768 -0.0030541471 0.008964925
-0.00050054194 -0.0019175147 0.0055780173 0.0016283174 -0.004403791 -0.004555058 -0.00027758486 -0.019741433
0.0012324253 -0.0011131323 -0.0010808198 0.0042043426 -0.082686365 0.0018539679 0.00047724033 -3.5326553e-05
-0.004732457 -0.0029831873 0.0023885218 -0.002540892 -0.0008922986 -0.0041437945 -0.002056962 -0.011299351
0.0004982808 0.0014898324 0.005334652 -0.00093450246 -0.0038599186 0.0028852886 -0.0048667286 0.030242225
-0.0018144533 -0.0020957016 -0.00052899757 -0.0070175524 -0.004526002 -0.02200694 -0.0041733286 -0.00065675215
-0.002505595 0.0040866584 -0.00018843602 -0.0014548922 -0.0021946502 4.233366e-05 -0.0007236011 0.0026619004
0.0036528124 0.064256966 -0.0028512992 0.003645808 0.001297023 -0.04096223 0.0034470386 0.0011733534
-0.0006758174 0.008602639 0.049867604 -0.019314945 0.005169231 0.0047489954 -0.0008060648 0.0019925637
0.0015107344 -0.12791847 -0.0016443888 0.0021771176 0.0018727937 -0.0025593555 -0.0023690157 -0.01004775
0.00074797514 -0.011918037 -0.00393254 0.0052613732 0.009244535 0.010566733 -0.010037517 -0.006237632
0.0004363237 0.0022216174 -0.006562332 -0.0025740424 0.003510957 -0.0020725888 0.006141588 0.0011985532
00000000: c9f7 0ebc 9159 34bb 8cea faba e711 573a
00000010: 415b f939 565a 25ba a7f1 903a a6b2 c43b
00000020: 1e8d e03a b82e 7c3b 8882 b8bb 62d5 a8b9
00000030: 0e42 dcbb 3679 743a be2f 173c f4ed ceb9
00000040: 021a fb3a 74e8 da3a 31ca 45bc 3080 a33a
00000050: 4c38 b83a d65b 883b fb83 983b 39a4 0239
00000060: 9cab 9039 2012 c03c 7989 c8b8 ee47 883c
00000070: ecb9 a83b f271 3ab8 086f c939 3634 0dbc
00000080: ef15 af3b 99f8 493c 3caa 293b 1f8f 24ba
00000090: 5b21 3a3b 21d2 303d 5399 963a bb7f 893c
000000a0: 5062 bdba 9a28 863b 85a8 bcba 2db6 c5b9
000000b0: 6430 86ba a17d 103b fcfb 0fba de21 47bc
000000c0: fdc4 c739 5dde 6f3a aba5 a13b d76f e73a
000000d0: 72f9 08bc 3caf 023b 78f7 8ab8 65bc 36bb
000000e0: df39 b13a 75d7 d2bb 2d32 e6ba 11c0 ab3b
000000f0: 989d 0dba 2cab 02bb 3ec9 d03a cb3e b4ba
00000100: 4909 89ba d2e9 4cb8 98a5 c0bb 2f7f 72b9
00000110: 61f1 cd3a 8fd9 87ba 32e9 7a3b 7310 30bb
00000120: af6a b43a f087 0b3b 0195 b73b bec2 1f3b
00000130: 63ab 223b 808a aa3c 01f2 943b c6ac 89bb
00000140: 2aae 6fba 8df9 053c 9da3 a839 19de a93a
00000150: fb3f cd3a 0e54 80bb 6194 5fba 6e57 a33b
00000160: b25e f6ba 8c73 af3c 952d 63b9 65a7 1dbb
00000170: 43d3 1239 a1a9 efba 3028 9ebb 77ad 2fba
00000180: 779f 22bb a620 74bb 57a5 543c 64b4 993b
00000190: 5374 7cba 7453 a2bb b1c7 003b b27e 4dbb
000001a0: b8a5 0f3b 8f70 d639 5081 c039 f061 d6ba
000001b0: 2338 35ba 0f28 4b3c 1f11 e43a a735 8ebb
000001c0: 5d24 463a 1572 7d3b 0b47 92bb e827 d4ba
000001d0: 75f3 c2bb b5fd ffba 3b5a 4e3b a315 bcb9
000001e0: bc66 b8ba 25f0 d7b9 c450 af3b 3731 aa3b
000001f0: dbb1 52bb b8b3 553b 27ea a2bb 73e7 6f37
00000200: d6a9 c3bc 2c1a 433b e88e 80b9 c3a3 b3b9
00000210: 00d4 b1ba d705 00ba 8042 38ba 166d b3b9
00000220: e4ba 5dbb 380f 1fbc f4ab 58bc 5703 173b
00000230: bfdb 493b d8bc d23a 186e 9bb9 0498 e43a
00000240: 8db9 ddba dcf4 06bb c3a9 2abd c0a4 333b
00000250: c0c8 43bb ffde 433c d2ab c43c 7c44 f937
00000260: 4052 e4ba c654 19bb f9cc c83b 7dd4 773c
00000270: 6b3b 84bb db26 303b 6837 103b f77e faba
00000280: c835 47bc 73b0 0abc 9468 a2bb a1c7 12ba
00000290: fc2d 723b ba38 fc3c 1628 48bb 9fe1 123c
000002a0: cd36 03ba 1e55 fbba cdc7 b63b 446d d53a
000002b0: ad4d 90bb 9942 95bb cf88 91b9 c9b8 a1bc
000002c0: 5589 a13a 86e6 91ba 4baa 8dba 95c4 893b
000002d0: 7857 a9bd d700 f33a 1d36 fa39 992b 14b8
000002e0: ba12 9bbb 9481 43bb bf88 1c3b 1885 26bb
000002f0: 25e9 69ba abc8 87bb 19ce 06bb ea20 39bc
00000300: 0f9f 023a 7b46 c33a 4ece ae3b 66f9 74ba
00000310: b0f6 7cbb 1c17 3d3b 1479 9fbb 8bbe f73c
00000320: f3d2 edba 0a58 09bb 6dac 0aba 7ff3 e5bb
00000330: db4e 94bb e647 b4bc 6bc0 88bb e429 2cba
00000340: e934 24bb 60e9 853b e996 45b9 15b2 beba
00000350: 1fd4 0fbb 6c8f 3138 0cb0 3dba 4773 2e3b
00000360: 0664 6f3b 2899 833d dddc 3abb 82ee 6e3b
00000370: df00 aa3a 03c8 27bd b6e7 613b 35cb 993a
00000380: 5729 31ba 15f2 0c3c f941 4c3d 603a 9ebc
00000390: a762 a93b 769d 9b3b 184e 53ba ac95 023b
000003a0: d603 c63a 0ffd 02be 8888 d7ba f9ad 0e3b
000003b0: 8778 f53a dcba 27bb 7d41 1bbb 519f 24bc
000003c0: c313 443a df43 43bc 89dc 80bb 9967 ac3b
000003d0: 6476 173c 1720 2d3c 6674 24bc 0d65 ccbb
000003e0: 60c2 e439 8e98 113b d508 d7bb 44b1 28bb
000003f0: 1518 663b 45d4 07bb 603f c93b c618 9d3a

fc2.bias f4 [40]
-0.00041322238 0.00022476295 0.00065435376 0.0007061543 0.0006701587 -0.00010874575 0.00084280747 0.0009431147
0.00063136424 -0.0008516747 0.00061462313 0.00066659367 0.0009101207 0.00094645715 -0.00061713473 -0.00075229886
-0.00080510665 -0.0009794135 0.0009251597 -0.00092917064 -1.4400688e-05 0.0007424558 -0.0004532575 -0.0003643536
-0.0005496727 -0.000513688 -0.00023493363 -0.00064710446 0.0004568908 0.000712138 -0.000350758 -0.00020717639
-0.00048494225 -0.00027221275 -0.00035869298 -0.0009321757 0.00073738623 -0.00016998712 -2.2916749e-05 -0.0002654484
00000000: c5a5 d8b9 58ae 6b39 f088 2b3a 361d 393a
00000010: 97ad 2f3a 6e0e e4b8 daef 5c3a 5b3b 773a
00000020: 2382 253a ec42 5fba a91e 213a 58be 2e3a
00000030: 2b95 6e3a aa1b 783a 36c7 21ba ec35 45ba
00000040: cb0d 53ba aa5f 80ba 6b86 723a 9693 73ba
00000050: 7c9a 71b7 5ea1 423a 31a3 edb9 b606 bfb9
00000060: e917 10ba 05a9 06ba 8458 76b9 72a2 29ba
00000070: d88a ef39 c6ae 3a3a f1e5 b7b9 7d3d 59b9
00000080: d93f feb9 c7b7 8eb9 f50e bcb9 415d 74ba
00000090: 274d 413a 923e 32b9 583d c0b7 e22b 8bb9
