runs/test_250607_193931/checkpoints/3aa6fb7a.pth (torch, 106145 bytes, 6 tensors)

fc1.weight f4 [128, 180, 1, 1]
00000000: 750a 233d 06b8 a43c 1eb9 2dbd a4a8 af3d
00000010: 52d1 e83d a397 563d ccbe 353d 7e76 d7bd
00000020: cfc7 9fbd 4fbe ed3d b339 723c dd39 cf3d
00000030: 1558 8c3d 8882 8bbd 7d0b 3cbd dacd e9bd
00000040: 6b23 f03d 5bae 623d 959e b7bd 66b7 adbd
00000050: 7fd8 dabd 55fb d13d 7906 f9bc 3d2f 653d
00000060: 45ef d0bd 1bb2 e8bd f354 e439 55c3 543d
00000070: 275e a73c 8de1 113c 87e9 82bd 5e42 b43d
00000080: ffe5 18bc 0f48 e1bd 2c6f 69bb d3dc 163d
00000090: d834 8f3d 4412 95bb be33 e43d 643b bfbd
000000a0: 0434 a13d ded7 babd 7bac 01bd 08f7 cbbd
000000b0: b1d7 673b c98f 02bc 1c39 d93d 8aab 833c
000000c0: 4a08 933d e91c b6bd 6f47 0dbd 686e 8cbd
000000d0: 7cd4 c63c a67c 02bd a0d8 963d 68af 1a3d
000000e0: dba0 b93c 0bbd 3dbd 4328 c0bd 5b20 7ebd
000000f0: 09b1 02be e2eb 98bc 5e70 b23d 2ebc e0bd
00000100: 954a a83c 8408 80bd 417a cebd 817a c6bd
00000110: d64b b7bd 3150 85bd e05e bd3d 61da 19bc
00000120: db02 cb3d e5fb b33d 5e26 9c3d 34f4 b63d
00000130: 4a38 26bc 35f5 a7bd 463c cc3d 78c7 f6bb
00000140: 834a 2c3d ab37 40b9 480b d0bd cc7f ca3c
00000150: c6d4 a93d baa1 e43d 7c6a 8abc f19a 77bd
00000160: 1237 86bb b001 eabd f3de ed3d de61 0bbc
00000170: 4367 1cbd 1f7e a13d 9b00 7f3d c72b 913d
00000180: 0cc9 b63d 0000 023d 7620 a2bc c1e0 a1bd
00000190: ad10 eebd 6370 71bc ff79 d13d 8473 e13d
000001a0: bc6c a83d 444f b13c db5c e2bd eddd be3d
000001b0: 0ab8 3dbd 1b03 aa3d 5b34 fd3d 81f3 f3bd
000001c0: 4031 83bc 033d 423c 8c97 79bd ca35 043d
000001d0: 3d87 923d f37f adbd 2354 8fbd b707 153d
000001e0: 5b53 0c3d 521c 97bd c32b f6bb b9d1 e4bc
000001f0: a909 d53d 90b3 3f3d 18a0 f9bc 81cc d3bd
00000200: 38c6 90bd 1a2c c6bb 3f23 af3c 7f4f 35bd
00000210: 904b 77bd ddd5 303d fbf5 b0bb b794 f9bd
00000220: 4729 323c 775d c4bd d335 0c3d e32e a9bd
00000230: 5c74 b5bd 3d1a ea3d c150 b73d f9c1 7cbd
00000240: 7863 9e3c f5d6 673d a9df 4cbc 67d2 973d
00000250: 359f 70bd 20b0 68bb ebf7 643d 992a 5a3d
00000260: 42be ad3d fee1 9ebd b4da ed3d 90f7 cebd
00000270: d74a d0bd 3970 62bd 7021 b7bd 9a63 8abb
00000280: 6d8d 1a3d 797d 06bd 66a5 c03d 034e 8ebd
00000290: eb2e 243c 4ebf d13c a85b ecbd bb34 9d3d
000002a0: 36db df3d 6aa9 f93c 9e74 94bd c795 bd3d
000002b0: 50d8 e93c 3886 3c3d 2431 773d 6af8 99bd
000002c0: 69a9 043d afc6 953d 123b b5bd 72e3 853d
000002d0: 17c8 ce3d 58fd cb3c cb61 8c3d 9011 943d
000002e0: ffb1 5a3d b77e 36bd 5810 46bd bd03 1ebd
000002f0: e5bb 5b3d 7915 c83c 5fee 743b b2bd b43b
00000300: 39cd 383d 49e6 96bb dc1a 40bc 80a0 43bd
00000310: ef53 6d3c 0c3d a8bc b5f1 c439 21c1 a1ba
00000320: d167 5dbc ff1a 353c 98ec a33b a163 fdbc
00000330: f367 f0bc 6f03 fbbc 1c04 0c3c 8047 7bbc
00000340: 5a61 163d 301f 8aba 166d debb 85c3 e2bb
00000350: d3ab 28bc 6160 963c 0f39 f73b df8c 963c
00000360: 7122 873b 9a65 443b cd00 73bc 19a6 133c
00000370: d05b d3bd 59b9 1ebd b953 853b 6fc6 663d
00000380: dcd5 2c3d 6626 e6bb a262 8d3c 9b68 53bd
00000390: a526 7c3d f6ec 6e3d 48c3 463d bdf1 b8bc
000003a0: adaf 843c a8ed f03c 37c1 e1bb c3bb 003c
000003b0: 544b 6c3c b771 453b 96cc 5f3c d76e a43c
000003c0: 9919 6b39 8d03 cfbc 41f2 143d 7817 573d
000003d0: 75e9 aa3c f117 6dbc b8ee e53c 97e9 2d3c
000003e0: 0490 cebc 31de 683c 0481 17bd 97b6 f43c
000003f0: d01c 4e3c 9c8d f7bc f211 db3c 0e26 1fbb
0.039804894 0.02010728 -0.04241287 0.085770875 0.1136805 0.052390706 0.04437141 -0.105206475
-0.07801782 0.11608564 0.014784264 0.101184584 0.06852738 -0.06812006 -0.045909394 -0.11416216
0.117255054 0.05534206 -0.08965794 -0.08482246 -0.106858246 0.10253016 -0.030398594 0.055953253
-0.10201887 -0.11362096 0.0004355084 0.051944096 0.020430638 0.008903873 -0.06392198 0.08801721
-0.009332179 -0.11000072 -0.0035619242 0.036831688 0.06992501 -0.0045492966 0.111426815 -0.093375
0.07871249 -0.09123205 -0.03165863 -0.09959227 0.0035376365 -0.007968851 0.10606596 0.016073007
0.071793154 -0.08892233 -0.034491953 -0.06856996 0.024271242 -0.031857155 0.07365537 0.037764937
0.02265971 -0.046322864 -0.09382679 -0.062042575 -0.12762846 -0.018667165 0.087128386 -0.109733924
0.020543376 -0.06251624 -0.10081912 -0.096913345 -0.089500114 -0.06509436 0.092466116 -0.0093904445
0.09912654 0.087882794 0.076245055 0.08933297 -0.010145256 -0.082010664 0.09972434 -0.0075311027
0.042063247 -0.00018331285 -0.10158402 0.024719141 0.082925364 0.111636594 -0.016896479 -0.060450498
-0.0040959204 -0.11426103 0.1161479 -0.00850722 -0.038184416 0.07885384 0.062256437 0.07088428
0.089250654 0.03173828 -0.01979087 -0.079041965 -0.116242744 -0.014736268 0.10228347 0.11008361
0.082238644 0.021644242 -0.11052867 0.09319673 -0.04631809 0.083013736 0.12363502 -0.11911679
-0.016014695 0.011855367 -0.060935542 0.03227786 0.07154701 -0.0847167 -0.0699847 0.03638431
0.03425918 -0.073784485 -0.007512541 -0.027932035 0.10402233 0.046802104 -0.030471846 -0.103417404
-0.07069057 -0.006047738 0.021379111 -0.044265267 -0.060374796 0.043172706 -0.005400417 -0.12186568
0.010874099 -0.095881395 0.03423102 -0.08260896 -0.088600844 0.11430786 0.089509495 -0.061708424
0.01933454 0.056601483 -0.012504497 0.07413178 -0.05874558 -0.003550537 0.055900495 0.05326328
0.084835544 -0.07757948 0.1161398 -0.101058125 -0.101705246 -0.055282805 -0.089419246 -0.004223299
0.03773253 -0.032834504 0.09406547 -0.06948473 0.010020952 0.025603916 -0.115409195 0.07676073
0.10930483 0.03047629 -0.072488055 0.092570834 0.028545529 0.04602644 0.0603496 -0.07518084
0.032388125 0.073132865 -0.088491574 0.065375224 0.10096758 0.024901077 0.0685459 0.07229912
0.053392407 -0.04455444 -0.04835543 -0.038577784 0.053645987 0.024424301 0.0037373526 0.0055157775
0.04511759 -0.004605089 -0.011725154 -0.047760487 0.014485343 -0.020536922 0.0003756412 -0.0012340882
-0.013513521 0.0110538 0.0050025694 -0.030931296 -0.029346442 -0.030641286 0.008545902 -0.015336871
0.036713935 -0.0010537859 -0.0067879064 -0.0069202804 -0.010294872 0.018356504 0.0075446437 0.01837772
0.004123979 0.0029967786 -0.014831734 0.009011769 -0.10320246 -0.03875098 0.0040688184 0.056341585
0.04219614 -0.0070236204 0.017258946 -0.05161343 0.06156029 0.058331452 0.04852608 -0.022576207
0.01619705 0.029410198 -0.006889488 0.007857266 0.0144222565 0.0030127594 0.013659617 0.020072384
0.00022420882 -0.025270248 0.036363844 0.052512616 0.020863274 -0.01447104 0.028067932 0.010614774
-0.025215156 0.014213131 -0.036988273 0.029872222 0.012580112 -0.030218892 0.026741955 -0.0024284157

fc1.bias f4 [128]
00000000: 779a c5bb cc4b aabb b64b dfbb 2663 02bb
00000010: 0766 93bb e3c3 bebb 4525 22bc 70df e9bb
00000020: 9e25 9dbb a297 0abc 9b37 02bc cbd4 f1bb
00000030: dc2b 87bb 36c0 2e3b 1ce7 dcba 42ad e0bb
00000040: 6ed0 b4bb 0542 a6bb 138f 0cbc 5623 c8bb
00000050: 2fc9 f0bb 8be0 b9bb c6b6 2bbc b7a8 13bc
00000060: 3b66 db3a 0529 1bbb 6e9d c9bb 9cf1 44bb
00000070: c6d4 08bc 0bb5 02bc ca94 0bbc a0d9 1b3b
00000080: a6d6 b5bb 09b9 15bc 520c 06bc 7cf0 b8bb
00000090: a942 cbbb d5bb 0dbc f247 81ba 68f1 e4bb
000000a0: f818 c2bb 5437 d8bb ac02 dabb 6e4b 00bb
000000b0: ed23 e0bb 4c14 bdbb f3da 6fbb f27d 123c
000000c0: 0afb 9fbb 8b9c 04bc 20da d7bb ab3a 0cbc
000000d0: 4345 01bc afb7 bc3b 24b0 80bb 0c8c 493b
000000e0: 27ac 1dbc 2a9a 09bc 2055 973c 56ae 9bbb
000000f0: b105 203b 9d1b 0cbc d6f9 7bbb c522 1bbc
00000100: d6f3 d2bb dd16 813b f3b8 23bc 5fff 8ebb
00000110: d464 78bb e8e8 cbbb 727e dfbb 69b0 cfbb
00000120: 932f 06bc 0541 fdbb 98ea bdbb 5b31 533c
00000130: 2c50 07bc fcf4 d1bb ead7 f7bb 5f7b 4fbc
00000140: 9503 00bc bf0b 07bc bb23 24bb 8a87 00bc
00000150: d9c4 01bc 8628 02bc b83e 09bc 26dc 1abc
00000160: 7740 0dbc 79f2 08bc c229 eabb 38c0 09bc
00000170: 7595 d5b9 8915 3b3b ccd3 2cbc ef77 42bb
00000180: a614 e4ba 262d 0abc 8326 d9bb e559 ebbb
00000190: a59b 07bc bc64 9bbb 9a74 09bc 8eba 213b
000001a0: b62c 63ba ed97 293c 9c37 e2bb 494b b4bb
000001b0: e64e afba 9703 c2bb 7530 e2bb 59cb d6bb
000001c0: 3d93 0bbc 6491 5cbb 4273 aa3b 815e ff3b
000001d0: eb48 f5bb d00c c8ba b97d 0abc d60c 0dbc
000001e0: c0e7 7ebc 372d 78bb a715 09bc 3b68 d2bb
000001f0: be1e 33bb 3cbb 09bc df2c efbb 2b56 c8bb
-0.0060303765 -0.005197024 -0.0068144454 -0.0019895523 -0.0044982466 -0.0058216914 -0.009896581 -0.0071372315
-0.004795744 -0.008459004 -0.007947828 -0.007380103 -0.0041251015 0.002666486 -0.0016853544 -0.0068565914
-0.005518011 -0.005073788 -0.008579033 -0.006107728 -0.0073482017 -0.0056725196 -0.010480588 -0.009012393
0.0016738841 -0.0023675573 -0.0061528003 -0.0030051237 -0.00835151 -0.007977734 -0.008519361 0.0023780838
-0.0055492697 -0.009138354 -0.008181648 -0.0056439023 -0.006203015 -0.00865074 -0.000986336 -0.0069867857
-0.0059233867 -0.0065983925 -0.0066531505 -0.001957621 -0.00684022 -0.005770242 -0.003659901 0.0089411605
-0.004882221 -0.008093963 -0.006587282 -0.008558909 -0.007890048 0.0057592015 -0.0039272476 0.003075364
-0.009623564 -0.008398572 0.018473208 -0.004751007 0.0024417455 -0.008551505 -0.0038448474 -0.009468739
-0.006437759 0.003939493 -0.009992826 -0.0043639387 -0.0037901895 -0.006222833 -0.0068204934 -0.0063381684
-0.0081900535 -0.007728698 -0.005795788 0.012890185 -0.008258861 -0.0064073782 -0.0075635808 -0.012663691
-0.007813354 -0.008242547 -0.002504571 -0.007844815 -0.007920467 -0.007944232 -0.00837677 -0.009451902
-0.008621327 -0.008358591 -0.007146091 -0.008407645 -0.0004073788 0.0028546772 -0.010548543 -0.0029673537
-0.0017401173 -0.008433616 -0.0066269054 -0.007182347 -0.008276855 -0.004742233 -0.008389616 0.0024677846
-0.0008666025 0.010351163 -0.006903602 -0.0055021388 -0.0013374954 -0.005920838 -0.006902749 -0.0065550026
-0.008518991 -0.0033655996 0.005201728 0.007793248 -0.007485499 -0.0015262607 -0.008452826 -0.008609017
-0.015558183 -0.0037868747 -0.008366979 -0.0064211166 -0.0027331556 -0.008406457 -0.00729905 -0.0061137876

fc2.weight f4 [20, 128, 1, 1]
00000000: 53b0 4d3b e31a 913b c04f 3d3b 231b 353c
00000010: cbc7 2bbc ee19 873b 9826 433b ea9f 933a
00000020: 2272 883b 66a3 943b bb14 923b 9742 923b
00000030: 3373 74bc 477d 85bb 1853 0d3c c5c0 c2bb
00000040: 466c 873b 373b b73b 4ba6 393b 8059 8d3b
00000050: 7e8f 8237 376c 9b3b 6b69 213b 13bc 10bb
00000060: af90 57bc 92a4 913b c821 5c3b 4fbd 52bc
00000070: 2577 9b3b 152d 083a 901c 753b 3cc2 42bc
00000080: 28bb 1f3c c09e 3cba af2e c03b 8b32 4fbc
00000090: 4922 55bc e551 913b f094 3fbc 3bd9 94bb
000000a0: c282 813b edfe 913b 35b4 6c3b d968 4fbc
000000b0: 046d ec3b 764f 9ebb f265 47bc 85b3 033a
000000c0: 3fb6 c83b ee61 a6bb c13c 8e3b 89b2 953b
000000d0: 45f4 483b 910d c03b 9b81 ab3b 8f2e 89bc
000000e0: d781 a33b ae1d 9a3b a509 f4bc 8990 963b
000000f0: bcfc c5bc 09e3 9a3b fd67 c23c f5b8 3dbb
00000100: 171f 993b 1377 6abc 61e5 9abb e7f2 12bc
00000110: c488 263c b4be 1dba 7012 9c3b a8cd 7f3b
00000120: 54a5 a33b 31a2 c13b 7205 913b 8a82 913b
00000130: f366 ad3b 3cc5 8d3b e3f0 e23b ab3e 71bc
00000140: dc40 50bc aea7 a33b d702 8a3b 8d86 c93b
00000150: a1cb b33b c53f 863a 9896 a93b a666 9a3b
00000160: b918 843b 15c7 9e3b 44a2 8bbb f880 903b
00000170: 62b9 813c 6000 a33a 8fae 45bc 9aeb 46bc
00000180: a37c 0ebb ccda d93b 71ff 933b c7e7 f13b
00000190: 3bfc 8b3b 0afa fd3b 6fd2 b63b 538a 493b
000001a0: 6bf9 71bc b383 ec3a ebad 953b 10dd 513b
000001b0: 5f92 4dbc 1189 883b 16d4 d83a 023d 8b3b
000001c0: e408 a23b 1021 a0bb cf7f 55bc f607 23bc
000001d0: de99 a038 b76f 38bc d807 a73b 361a 853b
000001e0: b747 1fba 2291 7cbc d5be 823b 2085 4f3a
000001f0: f43d 51bc 7c8f 923b d0a1 e9ba bee4 bfbb
00000200: 5e5e 583c ec51 013c e9ba 443b d5e0 cfbb
00000210: 708f 533b 03af a83b 7da4 453b 5eb8 6ebb
00000220: 65ed d53b 2ed3 46ba e964 bc3a b00d 273b
00000230: a95a ce3b 69ca 82bd 4b85 8abb 982d 67bb
00000240: afae 953b ed28 243b fea9 203a 2d9c a4bb
00000250: 694b 07bc db99 263b 49e4 5e3c 7d17 98bc
00000260: 260c 6d3c 7914 833b 8ff0 843a 065c 5fbc
00000270: 0e17 ef3a d05c 8dbb 87cd e33a d44b afbc
00000280: 2f74 0dbc 6ba9 ce3b df39 d9b8 ba75 723b
00000290: f917 a7bb 0c1d 403b b27e 013b 8b8b 913b
000002a0: 2214 01bc 0a0b 8a3b ab39 963b 0a9c f03a
000002b0: 7f0e 70bb 86de 3e3c 79cd d9bc 3fde 34bc
000002c0: cb17 9f3b cc39 c83b 3555 943b 1bc3 1a3b
000002d0: 4270 043a 900c 89bb 3989 e33b 64b9 68bc
000002e0: c0da 583a 3fcb 413b c366 f73b c256 993b
000002f0: 5fc2 e4bc 5c91 0eba 7093 0a3d 021f b0bb
00000300: ae72 883b a707 b73c efa8 d8bb 202b 563c
00000310: fcc6 b1bb dc0c 113c 644c 873b 7fcb 573b
00000320: 94de 623b d28b 9aba f935 be3b 9ef2 023b
00000330: a514 923a 84d3 063c c16a 0abb 757b 3dbd
00000340: 8d18 5abc fd6d 5cba 0fff 993b 0eb5 abb9
00000350: bf3c 0ebb 7a87 323b 103a fe3a 61de 3ebc
00000360: 4d69 07b9 608c 90ba 6289 e43b d224 ad3a
00000370: c1dd 3b3c a9e7 9ebd 0372 33bd 3506 233c
00000380: 60a3 29bd f66d 55bb 158f 863b d62a a0bb
00000390: ce09 a63b 43ca 14bb fb74 daba 1e79 acbc
000003a0: 5671 843c 5c0c 69bc de7b c33a 8503 f83b
000003b0: f6c8 9cba 9298 e93b 0a3d dc3b 0d16 bb3b
000003c0: 4b8d 633b 7a68 c2bb 0a23 05bb 2267 6d3a
000003d0: 7f18 cfbb 16f8 62ba e99a 1fbb 1f9f 20bb
000003e0: 3316 08bb 28c7 08bd 1b52 07bb 4412 163b
000003f0: ec45 b03c c70b 45bb 207c f73b d5e5 dd3b
0.0031385615 0.004428254 0.0028886646 0.011053833 -0.010484646 0.004122964 0.0029777642 0.0011262868
0.0041639963 0.00453608 0.0044580377 0.0044635045 -0.014920044 -0.004073772 0.008625768 -0.00594339
0.0041327802 0.0055917758 0.0028327878 0.0043136477 1.5564026e-05 0.004743125 0.0024629484 -0.0022084757
-0.013157054 0.004444667 0.003358947 -0.0128625175 0.0047444277 0.0005194706 0.0037401058 -0.011887129
0.009749211 -0.00071952865 0.00586494 -0.012646328 -0.0130086625 0.0044348114 -0.011693224 -0.0045424975
0.003952355 0.0044554383 0.0036118154 -0.012659275 0.007215144 -0.00483125 -0.012170302 0.0005024004
0.006125241 -0.005077592 0.0043407385 0.004568402 0.0030663174 0.0058609922 0.005233956 -0.016745834
0.0049898433 0.004703245 -0.029789755 0.0045948667 -0.024168365 0.0047267717 0.023731226 -0.0028949354
0.0046728957 -0.014310616 -0.004727051 -0.008969045 0.010164443 -0.00060174917 0.00476294 0.0039032493
0.004994074 0.0059092273 0.004425698 0.0044406103 0.0052918135 0.0043264907 0.0069256886 -0.014724414
-0.012710776 0.004994354 0.0042117643 0.006150073 0.005486921 0.0010242393 0.005175423 0.0047119437
0.0040312675 0.00484551 -0.004261287 0.0044099055 0.015835468 0.0012436025 -0.012065544 -0.012141133
-0.002174177 0.006648397 0.004516535 0.0073823663 0.0042720116 0.0077507542 0.005579285 0.0030752614
-0.0147689385 0.001804462 0.004567852 0.0032022633 -0.012547105 0.00416673 0.0016542699 0.004249216
0.0049449075 -0.004886754 -0.01303096 -0.0099506285 7.6580545e-05 -0.011257104 0.0050973706 0.0040619625
-0.0006076055 -0.015415462 0.003990034 0.00079162605 -0.012771118 0.004472671 -0.0017824713 -0.0058561256
0.013206093 0.007893067 0.0030018634 -0.0063439407 0.003228154 0.005147816 0.0030157857 -0.003642581
0.006528544 -0.0007584569 0.0014373335 0.0025490336 0.0062974286 -0.06386263 -0.0042273155 -0.0035274979
0.004567943 0.0025048808 0.00061288464 -0.0050235004 -0.008257725 0.0025421295 0.013604232 -0.018565888
0.014468228 0.0040002433 0.0010142493 -0.01363278 0.0018241124 -0.0043140426 0.0017379978 -0.021398462
-0.008633657 0.0063068173 -0.00010358146 0.003699644 -0.0050992933 0.0029314188 0.0019759354 0.0044416836
-0.007878335 0.0042127417 0.0045845113 0.001835705 -0.0036629734 0.011649733 -0.026587235 -0.011039316
0.0048551313 0.0061104055 0.004526759 0.0023614827 0.0005052128 -0.004182406 0.0069438484 -0.014204357
0.00082723424 0.0029570607 0.007550092 0.004679532 -0.027924715 -0.00054385304 0.033832014 -0.00537479
0.0041640615 0.022342516 -0.0066119353 0.013071805 -0.005425332 0.008853164 0.0041289795 0.003292769
0.003461753 -0.0011790937 0.005804774 0.0019981037 0.0011145069 0.00822914 -0.002112076 -0.046260316
-0.013311517 -0.00084087235 0.004699595 -0.00032750558 -0.0021703688 0.0027241395 0.0019395966 -0.011649699
-0.00012913831 -0.0011028163 0.006974385 0.0013209826 0.0114664445 -0.077590294 -0.043809902 0.00995021
-0.041415572 -0.0032566763 0.004106412 -0.004887919 0.005067087 -0.0022703565 -0.0016666943 -0.021053847
0.016167324 -0.014224138 0.0014914235 0.007568779 -0.0011961746 0.0071287835 0.0067211436 0.005709416
0.0034721668 -0.0059328647 -0.0020315074 0.00090562005 -0.006320059 -0.00086581835 -0.0024353808 -0.0024508906
-0.0020765185 -0.033393055 -0.0020648304 0.002289907 0.021517716 -0.0030066834 0.0075526386 0.006771783

fc2.bias f4 [20]
00000000: 8c41 883b b948 ab3a df1f 61ba 6f7b aab9
00000010: fa5e d939 8cec 93b8 0e7f 343a 781b c3ba
00000020: 9bc8 7bba 7b90 92b9 d2d5 bfba 6a15 51ba
00000030: 2b6f 69ba 6c97 a4b9 8dea 54ba 8f4f 5eba
00000040: cd2e 36ba f7db 60ba bcb2 13ba 8c2f 50ba
0.0041582044 0.0013067938 -0.0008587818 -0.00032516892 0.00041460228 -7.0535665e-05 0.00068853877 -0.0014885506
-0.00096047827 -0.00027954936 -0.0014635867 -0.0007975908 -0.000890481 -0.00031393336 -0.0008122109 -0.0008480483
-0.0006949723 -0.0008577699 -0.00056342385 -0.00079416553

layernorm.weight f4 [20]
00000000: e654 8e3f 1d4c 943f 7ddf 863f 7592 823f
00000010: a95e 833f 488b 833f b6ec 833f ca26 813f
00000020: f0fa 813f c20c 883f 6e34 813f 81fb 7c3f
00000030: 3884 7c3f 641f 7d3f 6311 7d3f 643a 7d3f
00000040: 1737 7d3f baeb 7c3f 3aff 7c3f 22ff 7c3f
1.1119659 1.1585728 1.0536953 1.0200945 1.0263263 1.027688 1.0306613 1.0089962
1.0154705 1.0628893 1.0094125 0.98821265 0.9863925 0.98876023 0.98854655 0.9891722
0.98912185 0.9879719 0.98826945 0.988268

layernorm.bias f4 [20]
00000000: 0eac 8f3d 46c1 60bc 947e 01bd f58a 17bd
00000010: 24d2 3dbd 8a40 41bd dee7 54bd 4316 b1bc
00000020: e141 f5bc e3a2 ebbc 729d b6bc 7dae 29ba
00000030: de5f 25ba b69d 4fba 2bf0 44ba 8bc2 66ba
00000040: 2bd6 4bba 3329 42ba e9b2 3aba 5186 3cba
0.07015239 -0.013717955 -0.031614855 -0.036997754 -0.046342984 -0.04718069 -0.05197894 -0.02161706
-0.02993864 -0.028764194 -0.022291873 -0.0006472839 -0.0006308536 -0.0007919924 -0.00075125945 -0.0008802793
-0.0007775749 -0.0007406652 -0.00071219966 -0.00071916456
