runs/test_250607_193931/checkpoints/e0fb7511.pth (torch, 106145 bytes, 6 tensors)

fc1.weight f4 [128, 180, 1, 1]
00000000: dece bc3c 1edb 94bd 7d43 fb3d daf0 d1bd
00000010: a9db ca3d 01ac 95bd d5d5 bbbd aacf 8dbd
00000020: 7355 1c3c 8c86 403d 01f1 efbc 584b 8e3d
00000030: 3f9b c13c 9438 e93d 2dd3 983c 6ba0 043d
00000040: 61cc 6dbc ed58 8e3d 762b 083d 66aa 313d
00000050: 3cf8 943d 6b0e a13b 1940 f93d 7573 f83d
00000060: 0780 523c 5de6 5c3d 49c4 013e d9d4 89bd
00000070: 991f 873d 067f 14bd c5ea 7f3d 6040 9bbb
00000080: 97be dbbc f19c 37bd 4497 a9bd befc 8c3d
00000090: b57e f6bb ec7f 15bd 100f 53bd 5fcc dfbd
000000a0: ba7d 04be 11b1 f4bd 76c8 b5bc 141d fdbd
000000b0: 6eef 95bc b765 bebc 91d3 a33d 2794 90bd
000000c0: 7588 8ebd 2458 a8bd 5299 fd3d c5aa ea3d
000000d0: 8c61 a0bc b4e8 44bd 1421 efbb 7473 c13d
000000e0: 74ac 82bd a213 c63d 5e97 143d 3918 77bd
000000f0: 0b0c aa3d f179 9fbd 6f9e d63c 3138 d3bd
00000100: 9f59 b0bc 336d 023e a323 b63b 56ec f2bd
00000110: 6ed2 9f3c 7e61 833d a301 21bc 73c6 db3d
00000120: a145 6cbb 1373 bdbb 3957 09be 8bbd 38bb
00000130: c8e5 83bb a5b9 693d 7206 2abd 9607 fcbd
00000140: b423 81bd d3f7 aa3d 6b66 ddbd 33d8 4cbd
00000150: 9912 03be 8c99 edbb 7269 793d e0d2 b2bd
00000160: 710e a73d 24ec 1a3d 9c77 fdbd 6e87 15bd
00000170: 2e0b 18bc 7887 a0bd 235e f63d 368c 9e3d
00000180: e15c 92bd 294d f9bd aa38 5bbd 7430 f63d
00000190: b60c 913d 976b c8bd 8df3 48bc e5d9 d13d
000001a0: acd0 94bd 7fb5 edbd afce 3a3c ed29 afbd
000001b0: cfdb ca3c eda9 973d f98d e6bc 5fd7 25bc
000001c0: 0532 ef3d ad45 3cbd c846 cabb df5c ba3d
000001d0: 03ab 9abd 30cb 083d 1e8b cd3d d88b d43d
000001e0: ddfc d6bd 71cd 053e b814 523d 3ef5 e2bd
000001f0: c565 ffbd 071b 843d eea9 1cbd 0d44 3f3c
00000200: 04aa d03d cf75 edbd 915c 0a3e 691d e93b
00000210: 580a 93bd a8b6 8fbd f006 c43c 0a7c 80bd
00000220: 2ad1 913d d97d dabd 0d9c 2ebd 3f34 603c
00000230: 2def a5bb e89c f83c cdf2 9a3c 575c 66bd
00000240: cee3 233d 891e be3d 6043 d7bd f210 efbd
00000250: 41d3 803d c7ed a9bd e5f7 cf3b 88d7 1cbd
00000260: ab2a edbd b3cf 383d f05f d23c 73a8 f6bd
00000270: 1f74 45bc 036f 733d 939c d73d a2f0 5a3d
00000280: b0b5 a93d 7409 cd3c eff2 f9bd 77eb 003e
00000290: ce03 f4bd ce28 39bd cdc5 553d ae7e a5bd
000002a0: 3dd1 5e3d e605 423d def8 013e f5ce 0cbd
000002b0: 5802 cf3d 645b 223c 45a8 4fbd 99d6 9f3d
000002c0: ec05 38bd de44 fb3c 4e2d 293d 467e de3d
000002d0: bb75 783c 64fc 45bc 48be 00be 778d 1abd
000002e0: 7104 673d 7885 04bd 1013 2b3d 1144 9d3d
000002f0: 9f77 42bd 3594 4e3d d0c7 01be 1c2b 563d
00000300: 17c6 843d 5c7f bd3d 4d17 3dbd 71c6 93bd
00000310: d7ea b83d c45c 1fbd 6cca a53c 7617 813d
00000320: 1d4f c9bd 5806 c13d cd61 8bbc 339d 87bc
00000330: 6b8d 2b3d b911 80bd 1bc8 a53d ff1b 86bd
00000340: cd8d a53d e4d9 cb3d 012e d9bd d98b ac3c
00000350: aa00 5c3d d9ae b0bd 90a6 cd3d a902 d8bd
00000360: eebf d7bc e3cb 143d 561c 8abd 7abd de3d
00000370: c414 0dbc 285f 1b3d 7582 6dbd ea20 9abc
00000380: 703d fabd 8932 04be 2c9b 803d aec8 e23d
00000390: e4ef 39bd 685f 8abd 1c4c 963d 75cd e33d
000003a0: 3017 4ebd 0c68 7a3d c3b8 003e 2a96 113d
000003b0: 63f7 45bd 921e 683d 0612 de3d 25a8 6bbd
000003c0: 637d c43c efa3 5b3d 4776 c1bd fe07 b63b
000003d0: a03e f93c 9f5f df3d 7fa7 f23d 4faa d23d
000003e0: 67dc 0b3e d9fd d23c d92b bb3b fa3d 0abe
000003f0: 7226 a23c dc7b e43d 26d9 463c d95e 09be
0.02304786 -0.07268356 0.12268732 -0.10251017 0.09905178 -0.07308198 -0.091716446 -0.069243744
0.009541857 0.047003314 -0.029289724 0.069479644 0.023633597 0.113877445 0.018655384 0.03237955
-0.01451406 0.06950555 0.033244573 0.043375395 0.072739094 0.004915049 0.12170429 0.12131397
0.012847907 0.05393063 0.12672533 -0.067300506 0.06597824 -0.03625395 0.062479753 -0.0047378987
-0.026824279 -0.044827405 -0.08280805 0.06884144 -0.007522429 -0.03649895 -0.051528037 -0.109276526
-0.12938586 -0.11947835 -0.022190314 -0.12359062 -0.018302646 -0.02324186 0.079993375 -0.07059508
-0.06959621 -0.082199365 0.12382759 0.11458353 -0.019577764 -0.048073485 -0.0072976444 0.09445849
-0.06380549 0.096717134 0.036277167 -0.060325835 0.08303078 -0.0778693 0.026198594 -0.10313452
-0.02152711 0.12736969 0.0055584474 -0.11861484 0.01950952 0.064150795 -0.00982705 0.107312106
-0.0036052244 -0.00578154 -0.13412179 -0.0028189148 -0.004025195 0.05706181 -0.041510053 -0.123061344
-0.06305638 0.0834805 -0.1081055 -0.05001087 -0.12800063 -0.00725097 0.060891576 -0.087316275
0.08157051 0.037822857 -0.12376329 -0.03650611 -0.009280009 -0.078383386 0.12029674 0.07741587
-0.071466215 -0.1217292 -0.053520836 0.120209605 0.070825025 -0.09786146 -0.012265098 0.10246638
-0.072663635 -0.11606883 0.011401816 -0.085529186 0.024763016 0.07405458 -0.02814387 -0.010122149
0.11679462 -0.045964886 -0.0061729886 0.09099745 -0.07552149 0.0333969 0.100363 0.103782356
-0.104974486 0.13066651 0.05128929 -0.110819325 -0.12470583 0.064504676 -0.038247995 0.011673939
0.10188678 -0.11594736 0.13511874 0.0071141017 -0.07179707 -0.07017261 0.02392909 -0.062736586
0.07119973 -0.10668535 -0.04262929 0.013684331 -0.0050639124 0.030348256 0.018914605 -0.056240406
0.040012173 0.09283168 -0.10510898 -0.11673154 0.062902935 -0.082973056 0.00634669 -0.038291484
-0.11580404 0.045119952 0.025680512 -0.12043848 -0.012051611 0.05943204 0.10527911 0.05345214
0.08286607 0.025028922 -0.12204539 0.12589823 -0.11914788 -0.04520493 0.05219059 -0.08080803
0.054398764 0.047368906 0.12692592 -0.034377057 0.10107869 0.009909485 -0.050697584 0.07804603
-0.044927523 0.030672487 0.04130297 0.108639285 0.015164788 -0.0120841 -0.12572587 -0.037732568
0.05640072 -0.03235385 0.041766226 0.07678998 -0.04747736 0.05043431 -0.12673879 0.052287206
0.06483095 0.092528075 -0.0461648 -0.07215584 0.09029167 -0.038906828 0.020238124 0.06303303
-0.09829543 0.09425038 -0.017014408 -0.01655445 0.041882914 -0.0625338 0.08094808 -0.065483086
0.08083687 0.09953669 -0.10604478 0.021062778 0.05371157 -0.086270995 0.10041535 -0.105473824
-0.026336636 0.036327254 -0.06743686 0.108759835 -0.008610908 0.037932545 -0.05798574 -0.018814523
-0.122187495 -0.12909903 0.06279597 0.11073433 -0.045394793 -0.067564785 0.073387355 0.11123172
-0.050315082 0.061134383 0.12570481 0.0355436 -0.04833163 0.05666978 0.108432814 -0.057533402
0.02398557 0.053623136 -0.09446388 0.005555152 0.03042537 0.1090691 0.118483536 0.1028639
0.13658296 0.02575581 0.005712014 -0.13500205 0.019793723 0.11156437 0.012136733 -0.13415088

fc1.bias f4 [128]
00000000: 9d11 0abc d01b d8bb f6dc c4bb ba5f bdbb
00000010: f6b4 16bc 99fb 473a 57a8 b7bb 9a7c f9ba
00000020: a5cb 16bc 8dd7 2aba 3256 f9bb 11b2 d2bb
00000030: abda d9bb eb7c ffbb b33e 733b c014 14bc
00000040: 1a12 ecbb b79e cabb 2bc9 eabb 1e7c 28bc
00000050: 82f3 b23c 4039 1ebc 9778 0dbc dfac 27bb
00000060: 6c01 e7bb 8d13 0fbc 0ab0 f23a 4975 96bc
00000070: bb6b 9b3b 2909 10bc fc09 eebb e769 d7bb
00000080: c05a 38bb e130 3bbc 86ef 15bc 7461 a03c
00000090: 86ee e7bb cbe6 d9bb c0e4 ffbb 1228 09bc
000000a0: c23e 9bbb bef0 0bbc 2c63 04bc bcaa 03bc
000000b0: 67da ae3b f643 8bbc 920a 17bc 06ff 87bb
000000c0: 63b1 f0bb f03b edbb 1fd1 0bbc d243 5f3b
000000d0: e680 66bc 6553 01bc e23d b2bb 134c 9bbb
000000e0: 22b7 08bc 6e00 19bc a551 19bc a718 c9bb
000000f0: fc76 01bc 63f0 e0bb 2bb5 91bb 253a 01bc
00000100: 3749 a9bb c496 7dbb 5dbc 73bc 69f2 b0bb
00000110: 2d88 d4bb 9f84 d2bb c26e 8cbb f441 18bc
00000120: e2b4 f0bb ba2e 0bbc 5baa 19bc 6f97 03bc
00000130: f4c8 b9bb 239a e43c a7a0 d3bb f151 c13b
00000140: 4303 f4bb ebfe e53b ef84 a73b 3656 26bc
00000150: ca41 02bc 5ca9 0cbc 85fd 03bc f35c cfbb
00000160: 4363 e1bb 8bbd d1bb 1c7d f7bb 2c3a 4cbc
00000170: 0db1 d8bb f708 cabb 1c3a d9bb 6577 653b
00000180: 55c8 21bc 2047 bebb 7ef7 0dbc f5c3 e5bb
00000190: 82cc 31bc b4c7 8cbb d6c1 31bc a0be febb
000001a0: 5e1c 713b b1a3 0dbc e23b 1ebc 63b7 e3bb
000001b0: 7e3c 71bb 50eb 03bc 573d 0cbc f627 1cbc
000001c0: 0d84 13bc 79ef fdbb a5d3 c0bb b58c 15bc
000001d0: b113 cc3b ca76 a5bc 342b afbb 3969 cabb
000001e0: 49c6 94bb 614f 08bc 084b b0bb 3b33 eebb
000001f0: 553c 13bc fbbf 2d3d b6dd 99bb 63f5 afbb
-0.008427051 -0.0065951124 -0.006007786 -0.0057792338 -0.009198418 0.00076287385 -0.0056047845 -0.0019034327
-0.009203826 -0.0006517105 -0.0076091522 -0.0064299186 -0.0066483817 -0.007796874 0.003711623 -0.00903815
-0.0072043063 -0.006183471 -0.0071650944 -0.010283498 0.02184463 -0.009657204 -0.008634708 -0.0025585217
-0.00704973 -0.008732689 0.0018515598 -0.018366473 0.004743067 -0.008791246 -0.007264374 -0.006573904
-0.0028130263 -0.011425228 -0.009151345 0.01957772 -0.0070779948 -0.006649827 -0.0078092515 -0.00837137
-0.004737706 -0.008541284 -0.008080285 -0.008036312 0.005336094 -0.01700018 -0.009218829 -0.004150274
-0.007345365 -0.007239811 -0.008533745 0.0034067524 -0.014068818 -0.007893418 -0.005439506 -0.0047392934
-0.0083444435 -0.009338481 -0.0093578445 -0.006136972 -0.007901903 -0.006864594 -0.0044466457 -0.007887398
-0.0051661986 -0.00386946 -0.014876452 -0.0053999913 -0.00648596 -0.006424501 -0.0042856643 -0.009293068
-0.0073457817 -0.008495027 -0.009378995 -0.00803171 -0.0056697074 0.02790553 -0.0064583602 0.0058996608
-0.007446678 0.007018914 0.0051122825 -0.01015239 -0.007950256 -0.0085853 -0.008056049 -0.006328219
-0.006878288 -0.006400769 -0.007552756 -0.012465041 -0.006612903 -0.0061656195 -0.0066292416 0.0035013792
-0.009874423 -0.0058068186 -0.008664964 -0.0070118853 -0.010851981 -0.0042962674 -0.010849437 -0.007774189
0.003679059 -0.008644984 -0.009657832 -0.0069493516 -0.0036809738 -0.008051708 -0.008559546 -0.009531012
-0.009003651 -0.0077494946 -0.005884605 -0.009127785 0.0062279333 -0.020198245 -0.0053457264 -0.0061770943
-0.004540239 -0.008319707 -0.005380038 -0.0072692907 -0.008986552 0.042419415 -0.0046956195 -0.0053698285

fc2.weight f4 [20, 128, 1, 1]
00000000: 6540 613b ea8a a63b 5fe7 8f3b b2a4 d1bb
00000010: ae9a c03b 9e7c 943b 2d70 683b 0fd5 f0bb
00000020: e45b 993b 7fb9 13bc 1798 6f3a 7b96 1fbc
00000030: 15f3 6e3b f635 963b 78d4 68bc 25e1 8d3b
00000040: 7507 153b d41a 3cbc e18a b437 a1a8 39bc
00000050: 5b49 7bbc 3934 9b3b 5a54 563b 08f6 edbb
00000060: 6dac c43b 5645 ad3b 0773 e9bb 29b1 e8bb
00000070: a5df 72bc ee51 cd3a 6678 8d3b 9d85 333b
00000080: 102b 99bb 7cff 22bc c6e6 773b 0aa4 9cbc
00000090: f4ab 8ebb 7a2c 973b dd92 853b 7b1e 64bb
000000a0: 3889 01bc 2c46 b03b b66e 8d3b 6b92 d8bb
000000b0: f986 9cba 2133 61bb aa15 853b 1af2 20bc
000000c0: 6251 e939 b198 683b 64ed b73b 5df8 f5bb
000000d0: 5f45 58bc c5b7 00ba e7ce 2ebc fd96 acba
000000e0: 0a7e cb3b 5a2e 2cbc caec 903b 2c39 66bb
000000f0: c2b0 1e3b 5525 0ebb ebc6 63bb 60ad 8a3b
00000100: e054 453b feed fab9 bdb5 39bc 394b 743b
00000110: 7a00 98b9 38ac 1e3a a13d 3b3b e164 8fbc
00000120: f74f 623b b9b1 373b 1255 9a3a 3a71 843b
00000130: 511b 893b 53b1 efbb 0e58 263b 3d23 0cbc
00000140: 3dc4 1b3b 98b1 1dbc e8cf 7abc 3937 9b3b
00000150: 4aaf 8c3b 72c9 863b d2b5 41bb 59c3 183c
00000160: 9203 a03b 9623 3b3b d16a 8b3b 6bbb 04bc
00000170: edc3 123b e731 f83a 9d05 913a 2321 d03b
00000180: d90e a33b 1e0a 02b7 9cc8 0e3b 7be9 933b
00000190: 9146 a43b 4ecd 3f3b 2b70 20bb b21d 7a3a
000001a0: bd41 5cbc 5e92 983b 06f7 c7bb 955f 793b
000001b0: 3b6a 19bc d17a 1a3b 694c 20bc b65a b03b
000001c0: 45be 953b 1781 0dbc 6b01 c43a b0ab 343a
000001d0: febe 60bc 435f 0fbc 5cec 813b b21c 4e3b
000001e0: 0708 02bc 35e1 b93b bd94 f6bb 5e00 79ba
000001f0: 3a5c 903b a773 93bb 8d16 0dbc 8869 993b
00000200: ced8 6a3b 7827 3f3b 3c5f 013b e56a d7bb
00000210: bba4 05b9 8481 373b 8250 6ebb 2931 86bc
00000220: b504 743b 21da a5bc b40d debb f9da c6bb
00000230: 5b01 953b 2a5e 7e3b a89b dcbb 6e01 4c3b
00000240: e6c8 e7ba 35f1 963a 8a8c d7bb ac6c 983a
00000250: 0f37 103b 94d9 54b9 f4ee 59ba 9eff 56bb
00000260: a10b dcba a278 5b3a c954 32bc dcdf 923a
00000270: 3697 86bc c6e2 54bb 4bf4 c63a ff4d a739
00000280: 6673 dc3a 1c12 63bb 1710 3f3b 4036 073b
00000290: 37ed 5ebb 4cbe a03b 0c27 6d3b 6696 c1bb
000002a0: 27e4 6dbc fd06 7e3a 79f0 48ba 7cfd 32bb
000002b0: 6f3c 88bc e017 c3bb 8d6e f93a 8d3a 03bc
000002c0: 38e6 29bb 182b 94bb 5306 953a 76fa 8dbc
000002d0: 877a 50bc 02a6 a9bb 72d1 64bc cd5e 85bb
000002e0: e81b 52ba 30f7 18bc 84c4 3e3b 91b1 89bb
000002f0: 2907 393b 1e71 cd39 7e51 a8bb 5371 fb3a
00000300: 303a cd3b 4f2b e6bc fc4f ebbb 2425 0e3c
00000310: 4a10 7bbb 08e2 6c3b 744b 89bc e051 b5bb
00000320: dd2c e9b8 20a1 08bb a2de d6bb 5519 3ebb
00000330: 1b4d 2a3b 221c f7bc bbf2 aa3b 7753 dbbc
00000340: c7d7 713a 5fb0 fbbc 5300 163b 8a6f 283a
00000350: 224b 033b aa7f af3b 500d 51bb 37d4 6ebb
00000360: 393a 813b f165 38bb 296b aa3a 6e5f c13c
00000370: 5f37 043b 69dd 1f3b 4d82 9dbb 1ffd cabc
00000380: 4b9d aa3a 22ef f5bb f8ff b8bb e535 50bb
00000390: d455 e13a f996 9abc 440f bd3a 2fca 433a
000003a0: a550 bfbb 61e2 643b 46c7 a5bb b6c9 21bb
000003b0: 267b 1aba 4a42 6fba 72ba 13bc bb38 08ba
000003c0: 070c e33a b67a f7bb cb90 d1bb 6c8d 05bc
000003d0: 549a e2bb b7bc 46bc 6b02 88bb 90bb e73b
000003e0: 48b2 dcbb fb46 013a d5f4 013b 6a56 14b9
000003f0: 7b7b 04bc 1210 5c3d c1a2 8d3b 3be2 533b
0.0034370658 0.005082478 0.0043915953 -0.006397807 0.0058778143 0.004531457 0.0035467253 -0.0073496173
0.0046801437 -0.009016394 0.00091397896 -0.009740467 0.0036460806 0.0045840694 -0.014210813 0.004329818
0.002274004 -0.011481006 2.1522343e-05 -0.011331708 -0.0153373135 0.00473645 0.0032704086 -0.007261995
0.006002 0.0052878065 -0.007124308 -0.0071011973 -0.014823829 0.0015664676 0.004317331 0.0027392872
-0.004674323 -0.0099486075 0.003782676 -0.019121189 -0.0043539945 0.0046134563 0.0040763454 -0.0034808207
-0.007906251 0.005379459 0.0043161763 -0.0066092513 -0.001194208 -0.003436275 0.0040614204 -0.0098233465
0.00044501858 0.0035491402 0.005613016 -0.007506414 -0.013200133 -0.00049101963 -0.010669447 -0.0013167557
0.0062100934 -0.010509098 0.0044227587 -0.0035129292 0.0024214243 -0.0021689732 -0.0034756016 0.0042320937
0.0030110404 -0.00047861034 -0.011334834 0.0037276282 -0.00028992054 0.0006052884 0.002857067 -0.017504157
0.0034532526 0.0028029515 0.001177462 0.004041818 0.0041841646 -0.00731484 0.0025382075 -0.008553323
0.002376809 -0.009624861 -0.015308358 0.0047368077 0.004293357 0.0041133696 -0.0029557836 0.009323918
0.004883238 0.0028555146 0.004254677 -0.008101325 0.0022394613 0.001893577 0.0011064295 0.0063516065
0.004976135 -7.750959e-06 0.0021787053 0.004513917 0.005013295 0.0029266658 -0.002448092 0.0009541168
-0.013443408 0.00465612 -0.0061024455 0.0038051356 -0.009363706 0.002357174 -0.009783843 0.0053819073
0.004569801 -0.008636734 0.0014954036 0.00068920385 -0.013717411 -0.0087507395 0.003964944 0.003145021
-0.007936484 0.0056725987 -0.007525055 -0.0009498651 0.0044055255 -0.004499871 -0.008611334 0.0046817698
0.0035834792 0.0029167812 0.0019740602 -0.006574022 -0.00012745235 0.0028000781 -0.0036363904 -0.016380863
0.003723425 -0.020245614 -0.006776536 -0.006068584 0.0045472807 0.003881345 -0.006732423 0.0031128782
-0.0017683774 0.0011515977 -0.006578033 0.0011629066 0.0022005474 -0.0002029895 -0.00083135 -0.0032806168
-0.0016788134 0.00083721627 -0.010884472 0.0011205631 -0.016429525 -0.00324838 0.0015179006 0.00031910834
0.0016819059 -0.0034648245 0.0029153877 0.00206317 -0.0034015903 0.0049054977 0.0036186604 -0.0059078215
-0.014519728 0.00096903724 -0.0007665228 -0.0027311733 -0.01663038 -0.005953774 0.0019030139 -0.008009565
-0.0025924575 -0.0045217387 0.0011369683 -0.017331343 -0.012724525 -0.0051772604 -0.013965951 -0.004070139
-0.00080150226 -0.009336278 0.0029108832 -0.004202076 0.0028233028 0.00039184926 -0.0051366678 0.0019183554
0.00626304 -0.028096823 -0.0071811657 0.008675847 -0.003830927 0.0036145467 -0.016759612 -0.005533442
-0.00011118662 -0.002084799 -0.0065573016 -0.0029006798 0.00259859 -0.030164782 0.005216924 -0.026773198
0.0009225574 -0.030723749 0.0022888377 0.0006425312 0.0020033796 0.005355795 -0.0031898804 -0.0036442408
0.0039437083 -0.0028136934 0.0013001907 0.023605075 0.0020174605 0.0024393445 -0.004806793 -0.0247789
0.0013016848 -0.0075053135 -0.005645748 -0.0031770405 0.0017191716 -0.018870817 0.0014424105 0.00074687874
-0.005838471 0.0034924971 -0.0050591556 -0.002468688 -0.00058929843 -0.00091270043 -0.00901662 -0.0005196442
0.001732231 -0.00755247 -0.0063954345 -0.008151393 -0.00691537 -0.012129954 -0.004150679 0.0070719197
-0.00673512 0.00049315364 0.001982977 -0.00014146572 -0.008086081 0.053726263 0.0043223803 0.0032330889

fc2.bias f4 [20]
00000000: 3ca4 5d3b 6b21 e4b8 37bb aeb9 7b13 d2b8
00000010: 3e4b 223a 201b 84b8 e3bb 1c3a 1883 bb3a
00000020: 919e 703a 0145 43ba 3a70 d239 d97c 96ba
00000030: af76 5eba 0516 56ba 2763 6fba 8a4c bcba
00000040: ed64 a3ba 2daf a8ba 0048 8fba 8f67 b2ba
0.0033819815 -0.00010878112 -0.00033327352 -0.00010017209 0.00061910215 -6.299303e-05 0.0005978925 0.0014306037
0.00091789017 -0.0007448942 0.00040137937 -0.0011481299 -0.0008486313 -0.00081667333 -0.00091319013 -0.0014366072
-0.0012465991 -0.0012869589 -0.0010931492 -0.0013611185

layernorm.weight f4 [20]
00000000: 40d9 8d3f 4b43 833f 820a 8e3f bf8a 803f
00000010: c38d 813f 4919 813f 147b 813f ce1a 833f
00000020: bae0 813f dcc2 873f 6096 813f bdec 7c3f
00000030: c6e0 7c3f e092 7c3f 39c1 7c3f 9b8a 7c3f
00000040: d7bc 7c3f 5ede 7c3f 3804 7d3f 1763 7c3f
1.1081924 1.0254911 1.1096957 1.0042342 1.0121387 1.0085841 1.0115685 1.0242555
1.0146706 1.0606341 1.0124016 0.98798734 0.9878048 0.98661613 0.98732334 0.98648995
0.98725647 0.98776805 0.9883456 0.985887

layernorm.bias f4 [20]
00000000: 072f 803d eaf3 b7bc 94a1 973c 9b5f 98bc
00000010: 8089 f7bc 42e0 b9bc bbf2 f7bc c7c2 46bd
00000020: c7f6 09bd 139a 0abc e0e0 f0bc e3a1 7eba
00000030: 7f39 56ba 39ee b2ba bde3 57ba 5092 8bba
00000040: 8f61 77ba 0b70 a1ba 039a 97ba 93e9 86ba
0.0625897 -0.022455174 0.018509664 -0.018600276 -0.030216932 -0.022689942 -0.03026711 -0.048525598
-0.03368261 -0.008459586 -0.029404104 -0.0009713454 -0.000817202 -0.0013651318 -0.0008235535 -0.0010648463
-0.00094368396 -0.0012316717 -0.0011566285 -0.0010292999
