nca-code/new_experiments/runs/parallel_nca_250618_130740/checkpoints/parallel_nca_model_250618_130740.pth (torch, 208791 bytes, 4 tensors)

fc1.weight f4 [256, 180, 1, 1]
00000000: 8460 33bc 23af 46bd 6c02 dfba 6e97 44ba
00000010: 7bd9 093d 92a9 a8bb ada7 edba 1a66 fbb9
00000020: 791a c4ba 4606 98ba efa3 803a e49c 1b3b
00000030: ee3e 69ba 5d4c 3cbb 42fa 05bb bd9b 3c39
00000040: c545 0d3b f077 f2ba 9806 04b8 8bb1 e3ba
00000050: c7e3 d23a 2611 953c e682 ea3a e080 0137
00000060: 9ccc efbb 1488 42ba 10c3 9537 701b cfba
00000070: 6c40 153b 1613 14bb 1ebb a93a 983b 11ba
00000080: 5cf9 263b 3ad9 18ba 57b7 d5b9 7df2 3d3b
00000090: c300 223b 9c94 33bb 30dd c23a bf1b 333a
000000a0: 3918 943c fff7 67bc 603a 9abb 18a9 59bb
000000b0: b65b 89bb 9542 913c 1a31 c9bb b151 fdba
000000c0: 3e05 183b 7639 89bb 0c20 883b ba1a 46bb
000000d0: 896e 36ba 71b0 8bbb 8ec7 85bb b1f8 01bb
000000e0: aab3 713b 4f12 8cbb 3603 64bb 5a72 4dbb
000000f0: 0b0c 13bb 7583 cc3b 06a1 a8ba 170e 2f3a
00000100: b8a9 7cbc 3cf3 f2b9 aafe 5bb9 1d11 4fba
00000110: 4830 b0ba b669 0ebb eea1 523a 6a58 4dba
00000120: 985a 9d39 f63e 3dba 28ea 51ba 69ca 033b
00000130: dc43 1fb9 d4e4 4eba b829 8e3a 3d25 c73a
00000140: a928 6d3a 5ae1 bebc 0bd0 e9bb f1c9 83bb
00000150: 23f2 163c 6135 253c 20cd 19bc 0702 73bb
00000160: bfd7 5fba ba96 e7bb 7808 b23b debe 11bc
00000170: 40a2 18bb 6f7d f8bb e223 dfbb d374 9dbb
00000180: ff36 ad3b 2dbf 98bb c659 5abb 6600 bbbb
00000190: ab26 15bc 2e37 aebc 05de 50ba 0e4b 9db9
000001a0: 261d 0cbc cd17 c2b9 cdc5 deba b530 0bb8
000001b0: 4bea 24bb 4cff c739 7b55 99ba fc12 98b8
000001c0: 2d4d 15ba 3008 1d3a 20e5 4437 be79 093a
000001d0: 7be6 14ba b689 89bb e64e 583a 8bc7 a43a
000001e0: 16c8 c3bc 9190 71bc 8934 6ebb 4c86 55bb
000001f0: 97eb 863d 8d56 a63c 2789 6fbb c522 64bb
00000200: 60a5 ac3b db43 67bb f717 353b f003 1c3b
00000210: 5a47 14bb 349f 09ba 0c81 67bb b485 8cbb
00000220: b05c 5d3b c87a 23bb 477a bdba 66fe 31bb
00000230: f2ad a5bb 6a99 b0ba e0be ac39 7e5d 223b
00000240: 4ba2 f0bb 4db7 39ba 0fdd 58ba 9868 e5ba
00000250: 9069 793a 1a8d feba f202 023a 8525 893a
00000260: 61d4 a33a 5674 1d3b 3ae2 35ba 1b2a 593b
00000270: 3f0c 073b 9ea8 b039 869d 203b c589 7cba
00000280: a074 11bc 2073 3fbd ed1f ef3a 62ea 063b
00000290: 1ef0 903c d991 213c d057 53b9 50cb 1c3b
000002a0: c969 5dbb d6f6 613a ea01 bcba 38f5 f2ba
000002b0: c111 d0b9 b8fb baba 885f f73a 57ec 9e3b
000002c0: 95c5 9cba ca40 6d3a 566c d0b9 8ca7 5e3a
000002d0: 62a3 d3ba 4bf7 f0bc fc3d f63b 2af9 c53b
000002e0: 0fd1 3cbc 6397 92bc 0a64 0d3c cdb5 e23b
000002f0: 1cd5 5abb c656 ec3b 7cd3 c1bb 288c a53a
00000300: 8c52 823b 3fe2 7b3b 34e1 d83b c79d fb3b
00000310: 5b58 c0bb faae 8e3b 6eab 433b 9f0d d13b
00000320: 4e32 3db8 b51f 8e3c 5cd5 9a3a b92b de3a
00000330: cec5 2cbc a198 bd39 4088 e7ba f614 843a
00000340: f317 06bb c40f 04bb 0ac6 46ba daa8 8538
00000350: b262 1ebb e717 9f3a 10f3 1fbb 5bd9 de3a
00000360: 831f 493a ce84 f8ba 8011 9439 3023 f73a
00000370: 923e c7bb 7bd7 0e3d 9a53 333b 5ea4 e83a
00000380: 072a bd39 5134 68bc 2b8a 933b 2794 1a3b
00000390: 4b64 733a 446e 4b3b f63a 23bb af9a 3e3b
000003a0: 417d eb3a e634 813b 7b55 4a3b f5e0 023b
000003b0: 1258 e8ba 6358 193b 6f64 1f3b 513f 3c3b
000003c0: 2cb1 fb3c a30a bebc 475f 11ba c3f3 ff39
000003d0: 6319 963c 415b f2b9 6065 7c39 dc60 9039
000003e0: 3cd4 fa37 ba38 02b9 f611 e239 96a5 22ba
000003f0: 3665 69b9 28cc 0c39 ddc5 923a 9e75 d9b9
-0.010948304 -0.048506867 -0.0017014272 -0.00074993714 0.03365467 -0.0051471675 -0.0018131636 -0.00047950522
-0.0014961503 -0.0011598549 0.0009814481 0.0023744637 -0.0008897622 -0.002873204 -0.0020443355 0.00017987094
0.0021556478 -0.0018498879 -3.1477393e-05 -0.0017371638 0.0016089611 0.018196654 0.0017891794 7.719005e-06
-0.0073180925 -0.000742079 1.7853017e-05 -0.0015801024 0.0022773994 -0.0022594384 0.0012949442 -0.0005540191
0.002547822 -0.0005830709 -0.00040763125 0.0028983646 0.0024719692 -0.002740181 0.0014866944 0.00068324426
0.018077957 -0.014158248 -0.004706666 -0.003321236 -0.004191841 0.017731944 -0.0061398866 -0.0019326714
0.0023196484 -0.004187758 0.004154211 -0.0030228333 -0.000695922 -0.004262977 -0.0040826267 -0.001983207
0.003688077 -0.0042746435 -0.0034791953 -0.0031348676 -0.0022437598 0.006241257 -0.0012865372 0.000667782
-0.0154213235 -0.0004633906 -0.00020980337 -0.00078989734 -0.0013442123 -0.002173049 0.00080349937 -0.0007833304
0.0003001287 -0.000721916 -0.0008007609 0.002010966 -0.00015188701 -0.00078923744 0.0010846173 0.0015193593
0.00090468914 -0.023300815 -0.0071353964 -0.004021876 0.009213003 0.010083527 -0.0093872845 -0.0037080066
-0.00085389236 -0.0070675286 0.0054331385 -0.008895604 -0.0023290068 -0.007583312 -0.0068096975 -0.0048051863
0.005286097 -0.004661462 -0.003331767 -0.0057068346 -0.009103457 -0.021266546 -0.0007967654 -0.00030001294
-0.008551871 -0.00037020296 -0.0016996205 -3.3185544e-05 -0.0025164064 0.0003814645 -0.0011698449 -7.251461e-05
-0.0005695399 0.0005990295 1.1735858e-05 0.0005244276 -0.0005680096 -0.0041973246 0.0008251503 0.0012571675
-0.02389912 -0.01474394 -0.0036347231 -0.0032581268 0.06587904 0.020304943 -0.0036550255 -0.0034810763
0.0052687377 -0.0035288248 0.0027632692 0.0023806058 -0.0022625537 -0.00052498584 -0.003532472 -0.0042883996
0.003377717 -0.002494501 -0.0014455997 -0.002715969 -0.0050561363 -0.0013473455 0.0003294861 0.0024774964
-0.0073435656 -0.0007084504 -0.00082726864 -0.0017502485 0.0009514326 -0.0019420714 0.00049595453 0.0010463452
0.0012499207 0.002402564 -0.00069383124 0.003313667 0.0020606664 0.00033694966 0.0024507954 -0.00096335664
-0.008877903 -0.04674065 0.0018243768 0.002058648 0.017692622 0.009861433 -0.00020155241 0.0023924895
-0.0033784977 0.000861985 -0.0014343832 -0.0018536216 -0.0003968608 -0.0014265692 0.0018873075 0.0048499512
-0.001196074 0.0009050487 -0.00039753568 0.00084935944 -0.0016146714 -0.029414793 0.0075147133 0.0060416656
-0.011524453 -0.017894452 0.008629808 0.006918645 -0.0033391183 0.0072124926 -0.0059151035 0.0012630271
0.0039771255 0.0038434414 0.006618643 0.0076787206 -0.005869908 0.004354355 0.0029856819 0.0063797976
-4.510796e-05 0.017349103 0.0011812854 0.0016950286 -0.010545207 0.00036162607 -0.0017664507 0.0010077048
-0.0020461052 -0.0020150999 -0.00075826107 6.373385e-05 -0.0024167714 0.0012137861 -0.002440635 0.0017002033
0.0007672237 -0.0018960477 0.00028241798 0.0018855091 -0.006080457 0.034873467 0.0027363063 0.001774918
0.00036080202 -0.014172629 0.004502555 0.002358684 0.0009284659 0.0031041065 -0.002490697 0.0029083898
0.0017966406 0.0039430736 0.0030873704 0.001997051 -0.0017726442 0.002339863 0.0024321338 0.0028724263
0.03072413 -0.023198431 -0.00055455085 0.00048819007 0.018322652 -0.00046225826 0.00024070358 0.00027537986
2.9901152e-05 -0.00012418898 0.0004311946 -0.0006204484 -0.00022258316 0.00013427495 0.0011197884 -0.00041477097

fc1.bias f4 [256]
00000000: b074 3fbc 23d5 04bc bb20 3abc 8bcd b2bb
00000010: a969 b4bc 399c 57bc 9101 ffbb 41e6 03bc
00000020: 6cdd 7dba 48ee adba e24f bdbc 567a aeb9
00000030: efdb 9abc 6d8f 56bc 16dc bfbc c0a7 87bc
00000040: cd49 17bc 4b0c b3bc f0c4 88bc 4dfd cdbc
00000050: 0977 2bbc 904a a6bc 6c35 62bc 3c01 98bc
00000060: 7c30 88bc 1e20 a2bc 8f64 53bc 1025 93bc
00000070: 27b7 a0bc 25e0 b3bc 2652 c6bb 8de2 9fbc
00000080: 621b 9cbc ca67 79bc 0e09 e0bc 4131 0abb
00000090: 110c 3ebc 9149 d5bc 9124 cdbc a57a 14bc
000000a0: 4355 143b 9c09 80bc 7fae a1bc 516d 1bbb
000000b0: 3426 17bc fc8a 91bc 3946 98bb 27c6 26bb
000000c0: 9b53 bebc 02f8 cebb 8d09 8dbc 89ca 26bc
000000d0: b205 bcbb 3ae2 cfbc 3ef9 a5bc abf7 46bc
000000e0: b3c7 94bc 158d c8bb cbf6 a7bc e3d3 b1bc
000000f0: ee5e 99bc 0c51 d8bc 53a1 45bc e7e5 093b
00000100: 4487 88bc e005 62bc 7564 86bc 8407 95bc
00000110: 92f1 62bc c512 aebc cd93 56bc c017 d3bc
00000120: 0976 6abc 67a1 83bc e8b4 41bc d555 7ebc
00000130: 1fdf a2bc 9b35 03bc f1e5 30bc cf16 98bc
00000140: 45c5 90bc 7dfd 97bc 37a5 3cbc 9593 6ebc
00000150: 5d14 efbb 78ec 44bc 732a 40bc cbc1 d4bb
00000160: 992f a7bc 24df 83bc c905 f6bc 0f5c 89bb
00000170: 7129 a2bc ee4c cdbb fe54 95bc 6301 98bc
00000180: f2cf 86bc bd34 f43b 3b32 8bbc e920 11bc
00000190: e152 cfbc 215b 59bc faf3 a2bc 1f74 e2bc
000001a0: 4ec3 50bc d857 b0bc cbc7 d1bc 1e9c 6fbc
000001b0: c067 b4bc 6caf 25bc 4709 2ebc ba6d b3bc
000001c0: ce04 8ebc 5b7c e8bb ecdd c5bc 1823 e2ba
000001d0: 1116 00bc 3bc4 92bc 3319 3cbc 5a00 5ebb
000001e0: ab45 6bbc b739 c6bc fdf7 38bc 5845 eabc
000001f0: b4e8 2ebc fd04 a3bc b499 46bc f512 43bc
00000200: 7d4f b9bc 2e28 afbc 6b89 9cbc f875 8ebb
00000210: d970 8dbc 8ee6 84bc 8877 25bc 7e0f 3bbb
00000220: a694 0d3c 0cf4 bfbb 9067 29bc e301 59bc
00000230: e541 34bc f274 4cbc 6c71 3ebc a078 f7bb
00000240: c751 203c 508f a5bb 5f8d 8abc 3ba2 84bc
00000250: 07b3 71bc 4a6a 2fbc c9d7 83bc 3a39 5bbc
00000260: dd82 cdba 011c 98bc 42ef b6bb e4da 8dbc
00000270: 3e8d 7ebc 0bd7 44bc e3c8 56bb fbf0 1ebc
00000280: 766b 0fbc 0d73 46bb 9150 56bc 34cd a53a
00000290: 0fc5 8bbc 6891 b4bb d521 453a 8eba 17bc
000002a0: 046e 15bc c672 a0bb 4327 5bbc 540a eeba
000002b0: 641e edbb bb79 e7bb 152d 1bbc 6bdf 84bc
000002c0: 20bc 82bc cd31 7ebc d7fd 67bc 329b 59bc
000002d0: f421 7839 aca4 57bc 8d69 68bc ca6d 05bc
000002e0: d6a9 56bc 2b48 a3bc de7f 99bc 9500 e4bb
000002f0: 3243 4fbc 6656 23bc 69d7 0d3c e82a bcbc
00000300: 67b5 2cbc c7d9 29bc 1189 67bc fa2e a53b
00000310: d6b6 aabb c9b5 02bc 127e 82bc 2c89 29bc
00000320: cd8c 07bc 4541 5bbc cbb1 a3bc b7f6 16bc
00000330: e5ad 22ba b2cb 0cbc 9c16 c8bb 9da9 5ebc
00000340: 2842 02bc 0ec9 83bc 0003 12bc ce49 26bc
00000350: 304b 21bc 421f 4fbc 8f02 c6bb b99a 74bc
00000360: a702 42bc a4b4 15bc 1703 10bc 5d2e 15bc
00000370: 37f2 1cbc 0346 19bc 2af7 2ebc 24df 46bc
00000380: c6a0 1abc 2156 21bc 39fe a8ba 7eda 7dbc
00000390: 08ee cebb de9c 4abb a1bb 7abc 6c35 bebc
000003a0: e345 523c f63d 26bc e4a7 55bc 0281 c63b
000003b0: 0d52 27bc c4cc 3d3b 5e14 81bc 3ea3 3cbc
000003c0: e8da cabb 3f1d 1dbc 1f30 06bc 54f6 5fbc
000003d0: 1d23 25bc f4bb 27bc 1f35 f7bb 5644 3cbc
000003e0: a018 18bc 1b30 b5bb 1ff1 63bc 23fa 41bc
000003f0: 387b 46bc 726f 71bb e709 8dbc 52cc 84bc
-0.011685535 -0.008107456 -0.011360343 -0.0054566315 -0.022023039 -0.013159805 -0.007782169 -0.008050502
-0.00096841785 -0.0013269866 -0.02310938 -0.00033279014 -0.0189037 -0.013095719 -0.023420375 -0.016559482
-0.009233904 -0.021856448 -0.01669547 -0.025145197 -0.010465392 -0.020299226 -0.013806682 -0.018555276
-0.016624682 -0.019790705 -0.012902393 -0.017962009 -0.019618584 -0.021957466 -0.0060522733 -0.019517208
-0.019056026 -0.015222499 -0.027348068 -0.0021086487 -0.011599557 -0.026036056 -0.02504185 -0.009062444
0.0022633828 -0.015629582 -0.019736527 -0.002371628 -0.009225417 -0.017766468 -0.004647043 -0.0025447698
-0.023233226 -0.006316186 -0.017216468 -0.010180124 -0.0057379836 -0.025376428 -0.02026045 -0.01214401
-0.01816163 -0.006120334 -0.020503422 -0.02170748 -0.018722024 -0.026405834 -0.0120623885 0.0021041573
-0.016666062 -0.013795346 -0.016405324 -0.01819206 -0.01385154 -0.021249184 -0.013096762 -0.02576816
-0.014310368 -0.016068174 -0.011822917 -0.015523394 -0.019881783 -0.008008386 -0.01079701 -0.018565563
-0.01767219 -0.01855349 -0.011514 -0.0145615535 -0.0072961287 -0.012019269 -0.011728871 -0.0064928285
-0.020408439 -0.016097613 -0.030032055 -0.0041918824 -0.019795151 -0.0062652742 -0.018229004 -0.018555349
-0.016456578 0.007452576 -0.016991725 -0.008857944 -0.025308074 -0.013266356 -0.019891728 -0.027643261
-0.012741877 -0.021526262 -0.025607964 -0.014624624 -0.022022128 -0.010112625 -0.010622329 -0.021902908
-0.017336275 -0.0070949025 -0.024153672 -0.001725289 -0.007817761 -0.017915836 -0.011480617 -0.0033874721
-0.014359872 -0.024197442 -0.011289594 -0.028597519 -0.010675598 -0.01989984 -0.012121607 -0.011906375
-0.02262091 -0.021381464 -0.019108495 -0.004347559 -0.017265724 -0.016223218 -0.010099299 -0.002854317
0.008641398 -0.00585795 -0.010339633 -0.013245079 -0.011002039 -0.012479054 -0.011623722 -0.0075522214
0.009785122 -0.0050524846 -0.016913114 -0.016190639 -0.014752156 -0.010706494 -0.016094105 -0.013380343
-0.0015679259 -0.01856804 -0.005582721 -0.01731629 -0.015536604 -0.012014161 -0.0032773546 -0.009701009
-0.008753648 -0.0030280978 -0.013080732 0.0012649656 -0.017061738 -0.005510498 0.0007519995 -0.009260787
-0.009120468 -0.0048964946 -0.01337606 -0.0018161037 -0.007236289 -0.007064072 -0.009471198 -0.016219815
-0.015958846 -0.015514803 -0.014159641 -0.01328163 0.00023663772 -0.013161819 -0.0141853215 -0.0081438515
-0.0131020155 -0.019931873 -0.01873773 -0.006958077 -0.012650298 -0.009969329 0.008657315 -0.022969678
-0.010541297 -0.010366864 -0.0141318 0.0050410004 -0.005209784 -0.007977911 -0.015929256 -0.010347646
-0.008273316 -0.013382261 -0.01998224 -0.009214095 -0.0006205722 -0.008593487 -0.006106211 -0.013590244
-0.007950343 -0.016087081 -0.008911848 -0.010149432 -0.009844586 -0.01264173 -0.0060427855 -0.014929467
-0.011841453 -0.009137306 -0.008789799 -0.009105292 -0.009579233 -0.009355071 -0.010679046 -0.012138162
-0.009437745 -0.009847195 -0.0012893147 -0.015493987 -0.0063149966 -0.0030916254 -0.015303523 -0.023218833
0.012834045 -0.010146609 -0.0130405165 0.0060578594 -0.0102124335 0.002896116 -0.015756782 -0.011513529
-0.0061906464 -0.009589492 -0.008190184 -0.013669569 -0.010079172 -0.010237683 -0.0075441743 -0.011490902
-0.009283215 -0.0055294163 -0.013912468 -0.011839422 -0.012114339 -0.0036840108 -0.017216636 -0.016210709

fc2.weight f4 [40, 128, 1, 1]
00000000: 8b1f ed3b 723e 1e3b 1b15 993b 6153 933b
00000010: 98b4 c838 e221 0db9 dc50 d93a 43fb 203a
00000020: 2d30 ce3b 56a9 993b b8c0 b2ba 2ef5 6a3b
00000030: ec95 aeba 70af a0ba 8c56 c2b8 542d b7bb
00000040: f532 2d3a 3097 9639 fc3a 8dba 3d29 4aba
00000050: 049b 973b 1ec6 10b9 0207 b53a bb18 29bb
00000060: 6f6e 9a3a 4e10 f3b9 ef35 44bb 7c41 6f3b
00000070: 72c7 bab8 dc1f e73a 9d4f 6e3b 9205 3aba
00000080: cbee b8ba c939 b2b9 2b2d 90ba b178 c9bb
00000090: c620 b3bb 93d3 4b3a f961 73ba bf28 f83a
000000a0: 13d2 a63a cd22 00bb f972 99b9 ec98 33bc
000000b0: a405 373b 4df4 0e3b c6e2 e23a ca31 ca39
000000c0: 54df a83a ecae 723b 8512 233b 4d39 c0ba
000000d0: ff85 903a 91ff bf3a 849c 1a3a 6e6b fcb9
000000e0: 1327 1c39 9416 ddbb c757 5739 f02a 23ba
000000f0: 6fe7 e439 99ee 47b9 06b3 113b 5bbb 1dba
00000100: 8087 b73a 3000 1ebb 7e9d 26ba b4bb 25bb
00000110: 7b12 2b3b 89da 3139 a1ab 763b 37f5 33b8
00000120: ed74 90bc da37 98ba f598 24ba 8ee6 21bb
00000130: 0307 d5b9 0a9e b739 56d7 3439 29f2 703b
00000140: 134d 6f3a 6099 b4ba c98d ceba f7ed c6ba
00000150: eadf 783a 11e5 3a3b 48e7 403a 7956 183c
00000160: e99c 173b 16ed 8c3b 1df2 9eb9 459a 4fbb
00000170: 2247 9b3a 3eb6 79bb 6bd2 383a cbd0 933a
00000180: f9fc cc3a d3fc 403b 13fe 6839 c31d 9a3a
00000190: f1d9 f63a 6ba7 703a 03d3 bbbb d708 ed38
000001a0: 58b7 82b9 43ea 513b ff51 c038 88e9 233a
000001b0: 65ca 6f3a 4cb8 d73a ca41 e9ba e699 70ba
000001c0: 305f 36ba bc90 453b 5cd9 51ba 8fd9 aa3b
000001d0: 2fb4 b03b 0ef3 a53b 3778 6d39 303b d73b
000001e0: 9c49 01bb 898a a4b9 9c67 ce3b 58fb 66ba
000001f0: f618 8a3b b1ca 36ba eaa0 6a3b 6d70 43bb
00000200: c5fa 273c 764b a4ba 8cf4 78bb 7928 87bb
00000210: cd31 4639 3f3c 8a39 c30d 033b ee79 7d3b
00000220: 7975 6c3c a923 3cbb 1ee0 34bc f8a4 773b
00000230: 92b2 943b e8c2 893b ba33 2f39 25f2 4ebc
00000240: aaeb d03a dcfb d339 d286 2fbb a97d 0239
00000250: a2f4 8039 ee10 8bbb e5db e438 8072 11bd
00000260: b463 113b 8aeb 023b ae84 be3b 6f11 6bbb
00000270: cf2d 1abd cf68 5bba 35af 90ba c442 e1bb
00000280: b335 84bb 6fa5 253a 77f7 9ab9 3353 02bb
00000290: 406d 073b 040b 5fba cd17 0e3a 346c 1dba
000002a0: 63e1 643b 06d0 353c d7cc 04ba 4081 163c
000002b0: b1f1 343c 45c9 31bb 8630 ca3c 8b1b 563c
000002c0: 9cdb 9ebb c7d0 0a3b 0cc4 1db9 f30a 87bb
000002d0: 0e88 82ba 31dc 4e39 b342 e2ba 709b 883b
000002e0: bb51 fabb af7d 223c 52f8 ab38 184a 353b
000002f0: 125d 1d3b bc66 1bba 67ac 163b d7fa 003c
00000300: f476 96bb fd95 7d3b 3bb3 683b ad4f 1dbe
00000310: 6c10 d9b9 e7b3 bb3a a8ae 3d3d 6bf2 40bb
00000320: 7a26 30bd 5008 2c39 3fea 4b3b c6c1 cf3a
00000330: 1bc3 09b9 506d 3c3c 4b87 8f3c 4ea6 19bb
00000340: c416 faba d334 87ba fbd5 313b 6b4b d6b9
00000350: b85d 0ebb 78f4 9c39 894f d9bb fd19 6a3c
00000360: b943 60bb 2acd d0bb bac7 033a 2b03 423c
00000370: 52b8 07bb da48 393a 9cf7 593b b8f3 e6bb
00000380: c68d 923b 9ea8 39bc 952b f43a f882 523c
00000390: 624d 21bb 5f98 9cba dc68 ce39 fd25 5a3a
000003a0: 3f4a d33a 6cc3 f2ba adb3 da3a d859 da3a
000003b0: 721b 2abb 6cb2 b4bb 553e 25bc 99b0 b73a
000003c0: a4b0 cfbb 1928 a33a f7a8 11bc 608f 713b
000003d0: 1dbd 34bc cea3 d4bd f038 edbb 447a bd3b
000003e0: c3ec ef3a 8a6a 8c39 e5db 70bb 9ba8 d837
000003f0: e1fa f6bb 2af9 513b 000f e0ba ff1d a03b
0.007236426 0.0024146107 0.0046717054 0.0044960235 9.5703814e-05 -0.0001345943 0.0016579884 0.00061409565
0.006292364 0.004689376 -0.0013637757 0.0035851705 -0.0013319827 -0.0012259316 -9.2667615e-05 -0.0055901203
0.00066070195 0.00028722873 -0.0010775025 -0.00077118335 0.0046266336 -0.00013806715 0.0013811293 -0.0025802094
0.0011782179 -0.0004636072 -0.0029939373 0.0036507538 -8.906321e-05 0.0017633396 0.0036363371 -0.0007096167
-0.0014109252 -0.0003399386 -0.0010999789 -0.0061484207 -0.0054665534 0.00077753625 -0.00092843134 0.0018933042
0.0012727402 -0.0019551993 -0.00029268095 -0.010961752 0.0027926946 0.0021813095 0.0017310015 0.00038565538
0.001288394 0.003703053 0.0024882865 -0.0014665514 0.0011026262 0.0014648308 0.00058979564 -0.00048145227
0.00014891876 -0.0067470763 0.00020536697 -0.0006224355 0.0004365998 -0.00019067003 0.002223195 -0.0006016993
0.0014002174 -0.0024108998 -0.00063558656 -0.0025288882 0.0026103545 0.00016961446 0.003763892 -4.29053e-05
-0.01763388 -0.0011613325 -0.0006278896 -0.0024704072 -0.0004063175 0.00035022228 0.00017246357 0.0036765432
0.00091286114 -0.001377862 -0.0015758808 -0.001517712 0.0009493815 0.0028517882 0.00073586823 0.00929796
0.0023134297 0.004300724 -0.00030316497 -0.0031677645 0.0011846761 -0.003810301 0.00070503977 0.0011277435
0.0015639357 0.002944757 0.00022219894 0.0011758137 0.0018833262 0.00091802207 -0.0057319417 0.00011302687
-0.00024932134 0.00320305 9.1705464e-05 0.00062527554 0.00091472856 0.0016458123 -0.0017796096 -0.0009178206
-0.0006956933 0.0030146083 -0.00080051064 0.0052139233 0.0053925733 0.005064375 0.00022646865 0.006568335
-0.0019727712 -0.00031383734 0.0062989723 -0.0008811257 0.0042144014 -0.00069729524 0.0035801479 -0.002982165
0.010252659 -0.0012534696 -0.0037987558 -0.0041246978 0.00018901304 0.00026366298 0.0019997216 0.0038677412
0.014432305 -0.0028707779 -0.011039762 0.0037787538 0.004537889 0.004204143 0.0001670857 -0.012630974
0.0015939374 0.00040432706 -0.002678324 0.00012444578 0.00024596328 -0.0042439615 0.00010912846 -0.035509586
0.0022184672 0.0019976818 0.0058141565 -0.0035868546 -0.037641343 -0.0008369805 -0.0011038544 -0.006874414
-0.0040347218 0.0006318902 -0.00029557545 -0.0019886016 0.0020664483 -0.00085084164 0.0005420417 -0.0006005198
0.003492438 0.01109696 -0.0005065924 0.009186089 0.011043952 -0.0027128023 0.02468134 0.01306809
-0.004847957 0.002118157 -0.0001504572 -0.0041211783 -0.000995876 0.00019727719 -0.001726231 0.00416892
-0.0076391376 0.009917661 8.200169e-05 0.0027662572 0.0024011773 -0.00059280894 0.0022990943 0.007872305
-0.004591817 0.0038694136 0.003550722 -0.15362425 -0.000414017 0.0014320583 0.046309143 -0.0029441367
-0.043005444 0.00016406295 0.0031114963 0.0015850596 -0.0001313802 0.0115006715 0.017520567 -0.0023445073
-0.0019080271 -0.0010315425 0.00271356 -0.00040873452 -0.0021723341 0.00029936782 -0.006631796 0.014288423
-0.0034220053 -0.0063721137 0.0005027015 0.011841576 -0.0020709229 0.00070680457 0.003325916 -0.0070480965
0.004472467 -0.011331705 0.0018628711 0.012848608 -0.0024612774 -0.0011947266 0.00039369508 0.0008321701
0.001612015 -0.0018521375 0.0016685628 0.0016658856 -0.00259563 -0.0055144336 -0.010085662 0.0014014422
-0.006338196 0.0012447863 -0.008890382 0.003685914 -0.011031416 -0.10382806 -0.0072394535 0.0057823975
0.0018304813 0.0002678226 -0.003675216 2.582772e-05 -0.0075372313 0.0032039382 -0.0017094314 0.0048863883

fc2.bias f4 [40]
00000000: c5e3 26b9 420c 4f39 a42a 0abb 1a69 deba
00000010: 96c7 3a3a a969 b6b9 7341 d8ba c2f9 08bb
00000020: dc98 6d3a 89e1 b6ba 366a e13a d59a 5db9
00000030: 7d47 45ba a960 44ba 96e7 ecba a856 1cbb
00000040: 9bc4 bc3a 3458 a9ba c263 91ba 68c3 daba
00000050: faaa 1ab9 7caf e0ba b695 8bb9 a4f3 e838
00000060: 829c e13a 64e5 13b8 8b8f 39b9 2590 06b9
00000070: 5f39 72b9 fb83 51b9 9ea3 8cb9 266f c239
00000080: 89f4 22b9 b385 b339 b7c8 fbb8 ab17 4639
00000090: 6fc7 4f39 d3df 49b9 2eda 3039 f2fd f938
-0.00015915844 0.00019745625 -0.0021082545 -0.0016968579 0.00071250775 -0.00034792468 -0.0016498998 -0.002090082
0.00090636103 -0.0013952713 0.0017197791 -0.00021133882 -0.0007525606 -0.000749121 -0.0018074389 -0.0023855362
0.0014401855 -0.0012919963 -0.0011092352 -0.0016690316 -0.00014750278 -0.0017142142 -0.0002662369 0.00011108004
0.0017212781 -3.5261168e-05 -0.00017696449 -0.00012832934 -0.00023100291 -0.0001998096 -0.00026824785 0.00037085376
-0.0001554062 0.00034241154 -0.00012005999 0.00018891568 0.00019815353 -0.00019252235 0.00016865946 0.00011920546
