nca-code/new_experiments/runs/parallel_nca_250618_133301/checkpoints/parallel_nca_model_250618_133301.pth (torch, 208791 bytes, 4 tensors)

fc1.weight f4 [256, 180, 1, 1]
00000000: ce64 81b7 63bd 83bc 7e54 ef39 9450 a8b9
00000010: 8a99 fbbb 6e09 d5ba 8e60 c6b9 7a06 f939
00000020: 49f6 9b39 97bd 00ba c267 d9b9 8ee6 c4b9
00000030: 277a d2b9 74af 023a b4a1 5939 806e eb39
00000040: 2dc9 fc39 a1c9 2339 7cf3 6a39 9707 d3b9
00000050: 3ff2 dfba 3b74 93ba 9017 9eb9 21be 91b8
00000060: e69c d5ba 711d 6eb8 d6c1 8338 5a37 6338
00000070: c4a0 a037 021e 94b8 e3f6 ab38 8c5f 4039
00000080: 63d8 74b8 5a11 b3b8 6342 d438 5e21 e1b6
00000090: 0f3c 66b7 8d91 5db8 60a8 6738 35a2 8e37
000000a0: dc2f 8cba 0c8b 0dbb c529 b239 8a19 6239
000000b0: 23b4 1abc f9c5 8f39 429a 8bb9 03a0 aa39
000000c0: 20f8 bab8 a6b1 d9b9 cc87 a0b9 3b22 a4b9
000000d0: fe7a a439 3758 9eb9 45dc 1db9 7b16 57b8
000000e0: 54df 3139 80d1 36b4 f405 1a38 9918 87b9
000000f0: 316d 063b a65d 3e3b d8f9 a737 3cb8 1ab8
00000100: 5ff2 17bb 599c 5bb8 3dde 03b8 ec90 9038
00000110: 034d 58b9 42af e4b6 ea8b ad37 b540 b238
00000120: 98bd 4a36 bc74 ff38 3f3d 0039 8739 d438
00000130: dedc df37 445a a938 80b0 05b9 d02c 3038
00000140: 2e88 4db7 6f7b d2bb 06b1 85b9 f03e 1ab9
00000150: 66f4 6e3c b6bb 49ba 1b38 0eb8 2c68 fd38
00000160: 7097 7a39 c9d6 deb9 e252 bb39 ec35 9db9
00000170: 4140 b839 adb8 b5b9 96d4 8a39 56f8 b5b9
00000180: 94cc b1b9 64c6 2b38 ece1 c2b9 776e 6139
00000190: 6029 b5bb b584 c8bc b971 9939 c4ab 07b9
000001a0: 08ea 46ba fd41 9638 b9c7 f7b8 a51b 7339
000001b0: 100c 8538 e64f 66b8 3262 7cb8 d75a 8139
000001c0: 04c6 0438 76ab 3639 4d4e 0b38 3271 3fb8
000001d0: 2b0d 93b8 f626 9a38 fa64 0bb7 4d8c 1438
000001e0: 4a37 33ba 48bf 7dbc 6765 8a38 9054 10b9
000001f0: 0630 8c3b 286e 6539 09c2 6539 a1c2 4a39
00000200: 89ca 0f39 c15a d4b8 1a72 ebb8 8963 29b9
00000210: 3218 3c39 88ef 1739 a4db adb8 15da f0b7
00000220: 8d29 2fb9 5dc5 da38 0f76 eab8 ff62 1bb9
00000230: b556 70ba 78a2 fe3b fd6b 01ba 522a 0e37
00000240: 3261 9dbb 74b0 de36 3f58 0cb9 5a9b 7c39
00000250: d69d 28b8 62d7 53b9 0ff9 ac38 99ee 8f39
00000260: 422a c1b8 15be 6039 49a8 42b8 b465 a138
00000270: 7ea5 7039 00bb 1639 1934 adb6 2e2c beb8
00000280: 09a0 b7ba 54f2 5f3c a494 e6b9 f6d5 4ab9
00000290: 6676 32bb f4ba 9bba 9bbf efb8 8503 9139
000002a0: 566c f338 a830 b0b9 99a3 b338 3f7b 8fb9
000002b0: a605 6139 127e a439 d1fa 8939 3529 44b9
000002c0: e0de 96b9 e9eb ea38 36ec 53b9 ea6d 83b9
000002d0: d350 f6bb 1636 303d ee01 30bb 6061 993a
000002e0: 54cb 14bd 42fd 7a3c e252 d739 3053 0abb
000002f0: 53d0 acba 6d84 123b 845c ac3a 90a2 1c3b
00000300: 7be8 2abb 2811 e3ba cc19 003a 9cb9 683b
00000310: 2de5 f43a 7c92 14bb 4ed6 213b b6fd f03a
00000320: 9363 00bc 3720 73bc 8568 0c3c 7d2b 263c
00000330: 5452 0f3c 4639 853b f01a dcbb 4a4a b53c
00000340: 3179 dcbc 92e8 65ba bb7d a0bc cb8e bb3a
00000350: 2672 6abc 7db7 273c 92c0 7bbc 6d3f 76bc
00000360: de4a 903c c1ea 5fbc 445d 55bc fbfa 0bbc
00000370: e006 43bc 5b27 48bb 06ad 01ba 47f1 073b
00000380: 2083 b1bc 23ce 8a3d 870a 713b c649 84ba
00000390: 5376 a7bb 0e8f 923a 898c 223b 2bc5 143a
000003a0: db48 993a 8538 d0b9 8097 2d3b 84c9 aa3b
000003b0: fff4 aa3a aa60 c7bb 15f6 b039 098f b33b
000003c0: f96c 323c cfab 83bc 1229 f53a c6a5 ac3b
000003d0: 678b 353c b80b 833b 6a8c 633b d3b8 17bb
000003e0: 4cd9 b03a c8c2 253b e1fa 183c a1d9 9d3a
000003f0: b060 2c3b 5d55 3ebb 9ba4 1cbb e445 be3b
-1.542494e-05 -0.016081518 0.00045648584 -0.00032103492 -0.0076782154 -0.0016253421 -0.00037837442 0.00047497806
0.000297474 -0.00049110636 -0.0004146677 -0.0003755581 -0.00040145332 0.0004985251 0.00020754972 0.00044905022
0.00048215073 0.00015620004 0.00022406684 -0.0004025071 -0.0017085745 -0.0011249849 -0.00030153664 -6.949553e-05
-0.001629737 -5.677104e-05 6.2826715e-05 5.4172568e-05 1.9148349e-05 -7.062779e-05 8.199902e-05 0.00018346141
-5.837566e-05 -8.538617e-05 0.00010121313 -6.709407e-06 -1.3723052e-05 -5.282606e-05 5.5231503e-05 1.7003253e-05
-0.0010695416 -0.002159777 0.00033981926 0.00021562554 -0.009442362 0.00027422587 -0.00026627077 0.00032544145
-8.915388e-05 -0.00041521824 -0.00030618755 -0.0003130602 0.00031372154 -0.00030201834 -0.00015054744 -5.128093e-05
0.00016963232 -1.7026287e-07 3.6722005e-05 -0.00025767533 0.002051186 0.0029047518 2.0024294e-05 -3.6888043e-05
-0.0023185236 -5.235928e-05 -3.143981e-05 6.893449e-05 -0.00020628054 -6.815332e-06 2.068836e-05 8.499754e-05
3.0210704e-06 0.00012181091 0.00012229847 0.00010119663 2.668652e-05 8.075361e-05 -0.0001274962 4.2003405e-05
-1.2250659e-05 -0.006423406 -0.0002549963 -0.0001471003 0.014584636 -0.00076955126 -3.390769e-05 0.000120833836
0.00023898273 -0.00042503167 0.00035729172 -0.00029985548 0.00035143088 -0.00034660604 0.000264798 -0.00034708035
-0.00033912493 4.0954343e-05 -0.00037170888 0.00021498823 -0.005528614 -0.024477342 0.00029267164 -0.00012938591
-0.0007587974 7.164849e-05 -0.00011815079 0.00023184584 6.344181e-05 -5.4910684e-05 -6.0172933e-05 0.00024672478
3.165567e-05 0.00017420747 3.3213106e-05 -4.564337e-05 -7.011959e-05 7.350549e-05 -8.308556e-06 3.5416615e-05
-0.0006836547 -0.0154875 6.5992404e-05 -0.00013764412 0.004278186 0.00021880178 0.00021911426 0.00019336726
0.00013712993 -0.00010125852 -0.00011226926 -0.00016154176 0.0001793809 0.00014489715 -8.290194e-05 -2.8711782e-05
-0.0001670478 0.00010431812 -0.000111799796 -0.00014818831 -0.0009168194 0.0077708326 -0.0004937051 8.473713e-06
-0.0048028463 6.6366574e-06 -0.00013384315 0.00024090466 -4.0201317e-05 -0.00020202764 8.24799e-05 0.00027452855
-9.210828e-05 0.00021433116 -4.6409932e-05 7.696022e-05 0.00022949834 0.00014374778 -5.1618667e-06 -9.068135e-05
-0.0014009486 0.013668615 -0.00043979764 -0.00019343928 -0.0027231215 -0.0011881278 -0.000114320974 0.00027659177
0.00011607322 -0.00033605588 8.5658576e-05 -0.0002736691 0.00021459776 0.00031374447 0.0002631755 -0.00018707367
-0.00028776284 0.00011201931 -0.00020210524 -0.0002506816 -0.007516959 0.04302033 -0.002685662 0.0011701994
-0.03632672 0.01531917 0.00041069748 -0.0021106713 -0.0013184644 0.0022356764 0.001315013 0.0023900606
-0.002607851 -0.0017323839 0.00048866565 0.0035511022 0.0018684022 -0.002267032 0.0024694386 0.0018386159
-0.00783624 -0.014839224 0.008569841 0.010142204 0.008747656 0.0040656654 -0.0067170784 0.02213015
-0.026913257 -0.00087703124 -0.019591203 0.0014309523 -0.014309442 0.010236618 -0.015365737 -0.01502977
0.017613824 -0.01366681 -0.013022725 -0.008543725 -0.011903495 -0.0030541036 -0.0004946742 0.0020743178
-0.02166897 0.06777599 0.0036779956 -0.0010092787 -0.005110541 0.001118155 0.0024803004 0.0005675132
0.0011694686 -0.00039714962 0.0026488006 0.005212011 0.0013042985 -0.0060845213 0.0003375268 0.0054796976
0.010890239 -0.016073136 0.0018704257 0.005268785 0.011080599 0.0039991997 0.0034721144 -0.0023150935
0.0013492494 0.00252931 0.009337158 0.0012043008 0.0026302747 -0.002904258 -0.0023901823 0.0058066715

fc1.bias f4 [256]
00000000: f927 6dbc ab20 b5bb 978f 32bc 9f57 90bc
00000010: 3abe 76bc 0475 19bc 591f e5bb bc25 2ebc
00000020: 1acf ef3a a5ee 70bc 8aa1 5dbb 0d62 17bc
00000030: 6deb 7abc 64bb 32bc 8ede 45bc 08de aebc
00000040: 9eb3 59bc d31f 40bc 01e2 b1bc 660b 80bc
00000050: 5b1f 39bc d04d 7bbc 4a7b 92bc 8ec6 5abc
00000060: 1fbd bdbb f62c 91bc 4b03 91bc d08d 8fbc
00000070: 1d53 13bc 4c44 61bc a937 31bc af56 96bc
00000080: 0f3d 94bc fa0d e1bb 1f16 41bc 80f9 21bc
00000090: 47cf aebc 2177 9ebc 6a14 56bc 2e3c 8bbc
000000a0: df24 39bc e054 9cbc 92b3 8dbc 66c0 72bc
000000b0: b279 38bb 5eda 82bc ad72 aebc 4e83 713b
000000c0: a1de 9ebc 3b80 2dbc 7bf8 2cbc d009 3ebb
000000d0: 36f8 02bc 04bb 28bc 4ef7 5abc 317d a4bc
000000e0: 6338 fbba f365 8cbc 32f7 b4bb 13e2 8abc
000000f0: 9867 84bc 4732 86bc 1532 823b b697 a1bc
00000100: 9a42 a1bc 27b6 74bc 3af9 8cbc 2786 3bbc
00000110: 6a9e b1bc 67ee 92bc 86e4 88bc 90cc 83bc
00000120: 9ba5 2bbc 2af3 3bbb b3fc a4bc 5878 adbc
00000130: 0c11 f8bb bfb4 6ebc 2b80 34bc 3cb4 2abc
00000140: 2028 94bc 981b 2ebc d0e7 51bc b960 1fbc
00000150: 743b 84bc feaf 8ebc 2a74 85bc 4e7c 6fbc
00000160: cf50 8bbc af9c 1cbc cc9b 72bc f26f c4bc
00000170: af15 f8bb 7d03 b0bb ac76 94bc 63a9 22bc
00000180: 5447 14bc 5d5a ae3c 0ebd c5bc 7073 01bc
00000190: e0e0 5bbc db08 48bc 4569 57bc 8c06 d0bc
000001a0: 7483 70bc 70ca afbc a088 66bb 3b7b 33bc
000001b0: 02ee 7dbc 287e 74bc b622 aa3b 3d1e 6cbc
000001c0: c03b 16bc 5746 db3a 887f 6fbc dd72 5abc
000001d0: bd56 bfbc d611 f0bb 4fa6 c0bb 1c2c 57bc
000001e0: 3f0b 31b9 be64 9dbc f24f 15bc e4d1 23bc
000001f0: 612e 95bc 96d3 58bc ecf2 a8bc 7812 a4bc
00000200: c9a7 81bc 1257 cdbb 78d5 c0bb bad5 84bc
00000210: b74c 19bc 4c46 b1bb 9f1c 57bc 5f59 5ebc
00000220: 25bc 43bc 1f69 4cbb 8312 5ebb 6663 8ebc
00000230: ae1c 6f3c 7d82 31bb fb9d e6bb 6afc 6dbc
00000240: d7ec 42bc 4b52 58bc fc22 6bbc e500 1cbc
00000250: d80c 63bc fcda 4cbc f86b 19bc 520f 5cbc
00000260: 4bc5 93bc 7e1f 19bc f3f5 71bc fe96 e1bb
00000270: 449a 48bc 563d 8bbb c722 2abc 7b38 2ebb
00000280: 7d8a 2dbc 43b6 83bc b440 4bbc 7063 d4bb
00000290: 0831 6ebc 7744 4bbb 2b5e 13bc a6d2 7ebc
000002a0: ccbf 40bc da68 5dbc 5034 41bc cafc 97bc
000002b0: 5af2 10ba a4f2 20bc 25ac 8abc c766 4ebb
000002c0: 2eb6 7bbc a6ac a5bc 4017 ebbb 4db3 afbb
000002d0: 266b d93b df59 01bc 4a01 123b e39c 3abc
000002e0: 6124 80bb ce10 4bbc 8869 aebb 3064 22bc
000002f0: 6e8f 6fbc 759d ffbb e0ab b238 fe48 01bc
00000300: 29d3 a23a 120d 51bc 77ea b6bb 58da 8abc
00000310: 4340 73bb af4c bbbb 756f f7bb 1d22 1dbc
00000320: 369f 8cbc 83cf 5dbc 9c27 88bc 61d2 7bbc
00000330: 9753 c2bb 2cc7 27bc 41af 69bb 6979 6bbc
00000340: 1a1c 2fbc e97d 31bc eaa8 18bc 0c7f 78bc
00000350: 94b5 7dbc 5306 37bc a3e0 bfbb c140 6ebc
00000360: 9fea 56bc ccfd 17bc 0d19 48bc fb27 51bc
00000370: ef50 75bc e32e 5abc c08b 97bc fe2a 99bc
00000380: 5b80 27bc a9a9 86bc 00a3 c6bb 0063 02bc
00000390: 9ba9 61bc 71b2 48bc 556a 65bc d8ba 2dbb
000003a0: 7d28 60bc abf9 36bc 6d9f 6fbc 7b1c 75bc
000003b0: e55f 8fbc 0cfa 0bbc 6dfa 73bc cdcb 96bc
000003c0: dd9e 8dbc 41f8 f3b7 ed9d 27bc f555 a0bc
000003d0: b45d 4cbc 4558 81bc c22e 17bc 3331 67bc
000003e0: fff1 1ebc 90e4 67bc 8ba3 19bc 4cd4 63bc
000003f0: 4993 15bc 9541 323b c314 f3bb bf0c b83b
-0.014474862 -0.005527576 -0.010898492 -0.017619906 -0.015060002 -0.009366278 -0.0069922623 -0.010629114
0.0018295974 -0.014705335 -0.0033818209 -0.009239686 -0.015314919 -0.010908935 -0.012076987 -0.021346107
-0.013287453 -0.0117263375 -0.021714212 -0.015630435 -0.01129898 -0.015338376 -0.017881054 -0.013353003
-0.0057903673 -0.017721634 -0.017701766 -0.017523676 -0.008991984 -0.013749193 -0.010816493 -0.01835188
-0.018095521 -0.006868121 -0.011785059 -0.009886146 -0.021339072 -0.019343914 -0.0130663905 -0.01699647
-0.011300295 -0.01908344 -0.01729754 -0.014816379 -0.0028148708 -0.015973266 -0.021294916 0.0036851945
-0.019393267 -0.010589655 -0.010557289 -0.0028997548 -0.007993748 -0.010298494 -0.013364626 -0.020079227
-0.0019166585 -0.017138457 -0.005522632 -0.016953504 -0.016162679 -0.016381396 0.0039732554 -0.019725662
-0.019685078 -0.014936007 -0.017208684 -0.011445559 -0.021681983 -0.017935945 -0.016710531 -0.016088754
-0.010476495 -0.0028678873 -0.020140028 -0.021175548 -0.0075703915 -0.01456946 -0.011016886 -0.010418948
-0.01808554 -0.010626696 -0.012811616 -0.00972765 -0.01614163 -0.017417904 -0.016290743 -0.014617039
-0.017006306 -0.009558841 -0.014807653 -0.023979161 -0.0075709443 -0.0053715096 -0.018122993 -0.00992808
-0.009050209 0.021283323 -0.024138 -0.007901058 -0.013420314 -0.012209143 -0.013147657 -0.025393747
-0.014679778 -0.021458834 -0.003517665 -0.010954673 -0.01549864 -0.014922656 0.005192126 -0.014411506
-0.009169519 0.0016729337 -0.014617808 -0.01333305 -0.02335679 -0.007326345 -0.0058792005 -0.013133075
-0.00016884225 -0.019213077 -0.009113299 -0.009998772 -0.018210592 -0.01323404 -0.020623647 -0.020028338
-0.015827077 -0.006266483 -0.0058848225 -0.016215194 -0.009356669 -0.0054099914 -0.013129382 -0.013571112
-0.011946713 -0.0031190587 -0.0033885546 -0.017381381 0.01459424 -0.0027085834 -0.0070378757 -0.014525512
-0.011897287 -0.013203214 -0.014351603 -0.009521698 -0.013858043 -0.012503382 -0.009364121 -0.013431387
-0.018038413 -0.009345887 -0.0147681115 -0.0068844547 -0.012243811 -0.004249255 -0.010384268 -0.0026583958
-0.0105921 -0.01607812 -0.012405563 -0.0064815804 -0.014538057 -0.003101615 -0.008994619 -0.015553152
-0.011764478 -0.013513768 -0.011792257 -0.018553156 -0.0005529277 -0.009823475 -0.016927788 -0.0031494366
-0.015363259 -0.020223927 -0.0071744025 -0.0053619505 0.0066350875 -0.007894962 0.00222786 -0.011389944
-0.0039105867 -0.012394143 -0.005322639 -0.009911582 -0.014621599 -0.0078007528 8.5197156e-05 -0.007890938
0.001242255 -0.012759464 -0.0055821496 -0.016949818 -0.003711716 -0.0057159285 -0.0075511285 -0.009590653
-0.017165761 -0.013538244 -0.01662045 -0.015369982 -0.005930375 -0.010240357 -0.0035657438 -0.014372208
-0.010687852 -0.010833242 -0.009317616 -0.015167009 -0.015485186 -0.011170941 -0.005855636 -0.014541806
-0.013117461 -0.0092768185 -0.012213004 -0.01276588 -0.014972909 -0.013316843 -0.018499255 -0.018697258
-0.010223473 -0.016438322 -0.0060619116 -0.007958174 -0.013773347 -0.012249575 -0.014002402 -0.0026509073
-0.013681528 -0.011167924 -0.014625412 -0.014960404 -0.01750178 -0.008543503 -0.014891249 -0.018407727
-0.017287666 -2.908346e-05 -0.0102305235 -0.019572238 -0.012473512 -0.01578916 -0.0092274565 -0.014110851
-0.009701251 -0.014153615 -0.009377371 -0.013905596 -0.009129354 0.0027199734 -0.0074182465 0.005616754

fc2.weight f4 [40, 128, 1, 1]
00000000: e84f 21b8 1647 863b 35de a33a 0ab3 ca3a
00000010: 2ce3 c2ba fc9a 873b fd55 f639 0446 c03b
00000020: 5050 ae3b 17fb 083a 169d c13b 127a 183a
00000030: df1d 233b e371 813b 5311 2539 a8ea 4bbb
00000040: 8df4 193b a7ff abba fe11 0cb9 ab0f 4bb9
00000050: 544b c139 3c11 d239 8e27 fe38 c9e8 b43a
00000060: 3799 dbbb 43b3 ad3a 07f4 473a 2611 113b
00000070: 3669 1539 b76e 64ba 747b c53a 1ef4 c0ba
00000080: ef1d 99b9 d687 3fb9 7846 5dbb 5c50 4f3a
00000090: 29b3 db39 9437 1f3b 27ca fdba 1930 b5ba
000000a0: a766 e8b9 d69e 4fba c340 503a 6c1a 053a
000000b0: 91b3 bcbb 7818 3eba c465 ee38 c8a4 693c
000000c0: 1cc5 a53a 4c3a 45b7 be2d bb3b 42eb 113b
000000d0: 0f23 a1bc 178e afba 26cb ddba 6629 8039
000000e0: 9e24 2ebb 26fe a4b9 68f4 a13a 0d9f ef39
000000f0: dacd 233b 7676 f739 b901 613b 9e4f 3cb9
00000100: 3c1c a9b8 8b1c 67b9 3b0f 0abb 61ff 3dba
00000110: e70b bb3a 9ddc 96ba bf53 25b9 9906 573a
00000120: 83b3 8b3a cd8c a83a 2b96 c438 f99e 143a
00000130: e3a2 daba 3cee 753b c951 c13b 7d72 2fbb
00000140: df41 4439 9914 1a3b c56f acba 55a8 e5ba
00000150: f23f 1e36 ca90 deba 095f 933a 1b5b bf37
00000160: 36e1 6dba 8b81 c53a 5f69 2fbb 710a be39
00000170: ac90 163c c725 0f3b ef03 ebb9 c28e e03a
00000180: d89a 02b9 057b 993b bd5a f539 e094 583b
00000190: e0eb 6c3b 085e 6838 4cb6 9039 3ded 5cba
000001a0: 3097 a03a 0ef8 5eba e5cd 85ba 3ed0 49b9
000001b0: 39ff 093b d090 1b3b e1cd 40bc a246 d1ba
000001c0: 5a9a 6e3b 8b70 ff38 87e2 6cba 91fc 853b
000001d0: 5312 a139 1327 a83b 38d1 43ba e527 3bba
000001e0: bde5 e93b 152d a4bb bfdb 36bb 1dcc f53a
000001f0: 1109 9f3a be60 0f3b 2421 3439 89c5 9438
00000200: e8c5 5d3b 3c94 b2bc 7a21 9d3a e213 64bb
00000210: 3bd9 9b39 e1d4 123d 1c81 183a 9217 39bc
00000220: 49bb 2e3d a258 0dbb 19e3 fbbc a91e 38bb
00000230: c82b aabb 7a73 eabb fe01 3dbb e3ac 193b
00000240: 2efb 90bb c45a 97b9 c673 86b9 a53e 8fb9
00000250: 9eab 4c3a 9a3e f5ba db44 db39 0c7c c238
00000260: 2392 a9bc 759b daba e7dd beba 7107 78bb
00000270: e2cd 0eba 48c5 563b 0199 dc3a b4f0 09bb
00000280: c5b9 6eba 30fb 79bb 9748 423b 8ea5 be38
00000290: be90 c3ba b893 59bb da7f 7e3b 6231 1abb
000002a0: a2eb 4437 8147 54ba b6ef 9aba 955a 34bb
000002b0: 740b 75bb 34fc 04bb 5083 213b abe4 5f3d
000002c0: 4071 20bc 3868 c9bb c4a5 d7bb 1e50 abb9
000002d0: faf4 c4ba 0df4 403b b2ce 003b bd96 27b9
000002e0: 89c1 84bb f768 47ba 9470 1e3c 514c 10ba
000002f0: 312c 34bb 28a1 5eb9 ad44 d7bd 72fd 51ba
00000300: 907e 93b9 eeea dc39 09b5 ef39 192f afbc
00000310: 2b01 32bb d1be 1fbb 1b53 76b9 fab3 393a
00000320: eada 3c3b 5ecd 293b 9ab8 32ba 3b7c 043a
00000330: 4425 403b 34b9 debb 9913 d2bb bb02 da3b
00000340: a5ef 61ba 5d65 663b 49ab 283b 204e febb
00000350: 7741 963a d55d d33a 626e 90ba 2677 833b
00000360: 6d24 393b 3246 50bb e619 4b3b 7e33 b5bc
00000370: 7fb1 1d3d 6ae9 943b dd28 2d3b 2fa4 143b
00000380: 6b86 523c fb2f b43c bec6 53ba 735b f4bb
00000390: 0015 febb 4c2d 1ebb a80d 1db9 896a 9ebb
000003a0: 0838 b2ba 0002 0c3b f579 40bb 7be2 e439
000003b0: 7239 d73b 1486 70bb 17d4 d9bd e994 5f3b
000003c0: aa6a 90bb c02b 4d3c bb93 813b e675 87bb
000003d0: 150c b4ba 09f8 39b9 3b31 e9bb 086a 433b
000003e0: bfb7 633d 06db ae3b 3f66 843b 0749 583b
000003f0: 7a6a 24bc f45f 6cbc 30e0 10ba 9e32 2f3a
-3.845981e-05 0.0040978296 0.0012502136 0.0015464735 -0.0014868728 0.0041383486 0.00046984843 0.0058677215
0.0053196326 0.00052254036 0.0059086187 0.000581653 0.002488963 0.003950344 0.0001574208 -0.0031115208
0.002349171 -0.0013122455 -0.00013358143 -0.00019365425 0.00036867952 0.00040067162 0.000121190315 0.0013802286
-0.0067016142 0.0013252277 0.00076276105 0.0022135465 0.00014248941 -0.00087140076 0.0015066699 -0.001472119
-0.00029204736 -0.00018265782 -0.0033763926 0.0007908398 0.0004190442 0.0024294602 -0.0019362614 -0.0013823538
-0.0004432697 -0.0007920092 0.00079442206 0.00050774845 -0.0057587107 -0.0007251571 0.0001136768 0.014260478
0.0012647244 -1.1755688e-05 0.00571224 0.0022265469 -0.019670038 -0.0013393787 -0.0016921505 0.00024444907
-0.0026572119 -0.00031469873 0.0012356164 0.00045704134 0.0024994523 0.00047199772 0.0034333302 -0.00017958737
-8.063807e-05 -0.0002204051 -0.0021066207 -0.0007247832 0.0014270515 -0.001150984 -0.00015766824 0.0008202582
0.0010658357 0.0012859345 9.373979e-05 0.0005669441 -0.0016680624 0.0037526032 0.005899642 -0.0026771121
0.00018716555 0.0023510812 -0.0013155869 -0.001752148 2.3581056e-06 -0.0016980406 0.0011243533 2.2811399e-05
-0.00090743916 0.0015068514 -0.0026765687 0.00036247403 0.009189766 0.0021842585 -0.00044825624 0.0017132389
-0.0001245545 0.0046838545 0.00046797647 0.003304772 0.0036151335 5.5400684e-05 0.00027601642 -0.0008427685
0.0012252089 -0.0008505591 -0.0010208456 -0.0001924643 0.0021056666 0.0023737438 -0.011767835 -0.0015966485
0.0036407919 0.0001218031 -0.0009036441 0.004088946 0.00030721966 0.005131611 -0.00074698357 -0.00071394286
0.0071379826 -0.005010257 -0.0027901975 0.0018752847 0.0012133439 0.0021877731 0.00017178484 7.093984e-05
0.0033839885 -0.0217992 0.0011988126 -0.003480189 0.00029725753 0.03584755 0.00058175786 -0.0112971235
0.042659078 -0.0021567722 -0.030747937 -0.0028094447 -0.0051932074 -0.007154879 -0.0028840299 0.0023448996
-0.004424474 -0.0002886859 -0.0002564473 -0.0002732176 0.00078075554 -0.0018710673 0.00041822236 9.2737464e-05
-0.020699566 -0.001667841 -0.0014561982 -0.0037846232 -0.0005447549 0.0032771397 0.0016830267 -0.0021048011
-0.00091066613 -0.0038144104 0.0029645318 9.090743e-05 -0.0014920456 -0.003319962 0.003883353 -0.002352797
1.1737373e-05 -0.0008097813 -0.0011820707 -0.0027519811 -0.003739086 -0.0020291926 0.0024644919 0.054661434
-0.009792626 -0.006146457 -0.00658104 -0.00032675354 -0.0015026622 0.002944234 0.001965445 -0.00015982515
-0.0040513915 -0.00076068885 0.009670395 -0.0005504536 -0.002749216 -0.00021231605 -0.10511146 -0.00080104836
-0.0002813232 0.00042136706 0.00045720514 -0.021384763 -0.002716134 -0.002437521 -0.00023491347 0.00070840085
0.0028817006 0.0025909762 -0.0006817669 0.0005053912 0.0029319087 -0.0067969803 -0.0064110276 0.0066531575
-0.00086187787 0.0035155632 0.002573686 -0.007760778 0.0011463602 0.0016125987 -0.0011019225 0.0040120063
0.0028250471 -0.003178012 0.0030990778 -0.02211928 0.03849935 0.0045444267 0.0026422061 0.002268087
0.012849431 0.021995535 -0.0008078626 -0.0074571907 -0.0077539682 -0.0024135886 -0.00014977774 -0.0048344773
-0.0013597021 0.0021363497 -0.0029369567 0.0004365629 0.0065681273 -0.003670101 -0.10636156 0.0034115857
-0.0044072466 0.012522638 0.0039543784 -0.0041339276 -0.0013736511 -0.00017735375 -0.0071164644 0.0029817838
0.055595156 0.005336168 0.004040509 0.0033002512 -0.010035152 -0.014427174 -0.00055265706 0.0006683263

fc2.bias f4 [40]
00000000: cc0d 7eb9 3542 4d39 5fa0 61b9 21d4 be39
00000010: aaa3 5b39 ee56 7038 dfbc 173a 2f16 22ba
00000020: cd6c 3db9 89c7 9539 d330 3b39 d6ce a139
00000030: 7f66 8bb9 c595 0db8 e312 0a3a e173 ee39
00000040: 6e50 dc39 dcb8 09ba ea6b b139 f3e4 2f3a
00000050: 2e1f 9a38 7d9f 653a 8c51 ad3a 530f 33ba
00000060: b93f 09ba 9c23 49ba 0334 67ba 0e14 a43a
00000070: f983 23ba 7a86 a1ba 3165 ddba 8160 6f3a
00000080: 73fa f4b9 ed01 693a b282 103a 9cf6 8eba
00000090: 2fd8 5b3a 442f 7dba 434e 2d3a 6e5e 6eba
-0.00024228467 0.00019574988 -0.00021517415 0.00036397672 0.00020946437 5.730142e-05 0.0005788337 -0.0006183115
-0.00018064976 0.0002856816 0.00017851898 0.00030862418 -0.00026588512 -3.3756503e-05 0.00052670966 0.00045481234
0.00042021595 -0.00052536814 0.00033840473 0.00067098363 7.3491e-05 0.00087594223 0.0013223155 -0.00068305916
-0.00052356307 -0.0007672848 -0.0008819701 0.0012518184 -0.0006237622 -0.0012323402 -0.0016891119 0.00091315067
-0.00046725906 0.00088885316 0.0005512639 -0.0010907236 0.0008386401 -0.0009658227 0.0006611088 -0.00090930506
